{"format": "layers-model", "generatedBy": "keras v2.2.4", "convertedBy": "TensorFlow.js Converter v1.2.8", "modelTopology": {"keras_version": "2.2.4", "backend": "tensorflow", "model_config": {"class_name": "Model", "config": {"name": "model_1", "layers": [{"name": "input_0", "class_name": "InputLayer", "config": {"batch_input_shape": [null, 3, 224, 224], "dtype": "float32", "sparse": false, "name": "input_0"}, "inbound_nodes": []}, {"name": "LAYER_0_pad", "class_name": "ZeroPadding2D", "config": {"name": "LAYER_0_pad", "trainable": true, "padding": [[1, 1], [1, 1]], "data_format": "channels_first"}, "inbound_nodes": [[["input_0", 0, 0, {}]]]}, {"name": "LAYER_0", "class_name": "Conv2D", "config": {"name": "LAYER_0", "trainable": true, "filters": 32, "kernel_size": [3, 3], "strides": [2, 2], "padding": "valid", "data_format": "channels_first", "dilation_rate": [1, 1], "activation": "linear", "use_bias": false, "kernel_initializer": {"class_name": "Zeros", "config": {}}, "bias_initializer": {"class_name": "Zeros", "config": {}}, "kernel_regularizer": null, "bias_regularizer": null, "activity_regularizer": null, "kernel_constraint": null, "bias_constraint": null}, "inbound_nodes": [[["LAYER_0_pad", 0, 0, {}]]]}, {"name": "LAYER_1", "class_name": "BatchNormalization", "config": {"name": "LAYER_1", "trainable": true, "axis": 1, "momentum": 0.8999999761581421, "epsilon": 9.999999747378752e-06, "center": true, "scale": true, "beta_initializer": {"class_name": "Zeros", "config": {}}, "gamma_initializer": {"class_name": "Ones", "config": {}}, "moving_mean_initializer": {"class_name": "Zeros", "config": {}}, "moving_variance_initializer": {"class_name": "Ones", "config": {}}, "beta_regularizer": null, "gamma_regularizer": null, "beta_constraint": null, "gamma_constraint": null}, "inbound_nodes": [[["LAYER_0", 0, 0, {}]]]}, {"name": "LAYER_2", "class_name": "ReLU", "config": {"name": "LAYER_2", "trainable": true, "max_value": 6.0, "negative_slope": 0.0, "threshold": 0.0}, "inbound_nodes": [[["LAYER_1", 0, 0, {}]]]}, {"name": "LAYER_3_pad", "class_name": "ZeroPadding2D", "config": {"name": "LAYER_3_pad", "trainable": true, "padding": [[1, 1], [1, 1]], "data_format": "channels_first"}, "inbound_nodes": [[["LAYER_2", 0, 0, {}]]]}, {"name": "LAYER_3", "class_name": "DepthwiseConv2D", "config": {"name": "LAYER_3", "trainable": true, "kernel_size": [3, 3], "strides": [1, 1], "padding": "valid", "data_format": "channels_first", "dilation_rate": [1, 1], "activation": "linear", "use_bias": false, "bias_initializer": {"class_name": "Zeros", "config": {}}, "bias_regularizer": null, "activity_regularizer": null, "bias_constraint": null, "depth_multiplier": 1, "depthwise_initializer": {"class_name": "VarianceScaling", "config": {"scale": 1.0, "mode": "fan_avg", "distribution": "uniform", "seed": null}}, "depthwise_regularizer": null, "depthwise_constraint": null}, "inbound_nodes": [[["LAYER_3_pad", 0, 0, {}]]]}, {"name": "LAYER_4", "class_name": "BatchNormalization", "config": {"name": "LAYER_4", "trainable": true, "axis": 1, "momentum": 0.8999999761581421, "epsilon": 9.999999747378752e-06, "center": true, "scale": true, "beta_initializer": {"class_name": "Zeros", "config": {}}, "gamma_initializer": {"class_name": "Ones", "config": {}}, "moving_mean_initializer": {"class_name": "Zeros", "config": {}}, "moving_variance_initializer": {"class_name": "Ones", "config": {}}, "beta_regularizer": null, "gamma_regularizer": null, "beta_constraint": null, "gamma_constraint": null}, "inbound_nodes": [[["LAYER_3", 0, 0, {}]]]}, {"name": "LAYER_5", "class_name": "ReLU", "config": {"name": "LAYER_5", "trainable": true, "max_value": 6.0, "negative_slope": 0.0, "threshold": 0.0}, "inbound_nodes": [[["LAYER_4", 0, 0, {}]]]}, {"name": "LAYER_6", "class_name": "Conv2D", "config": {"name": "LAYER_6", "trainable": true, "filters": 16, "kernel_size": [1, 1], "strides": [1, 1], "padding": "valid", "data_format": "channels_first", "dilation_rate": [1, 1], "activation": "linear", "use_bias": false, "kernel_initializer": {"class_name": "Zeros", "config": {}}, "bias_initializer": {"class_name": "Zeros", "config": {}}, "kernel_regularizer": null, "bias_regularizer": null, "activity_regularizer": null, "kernel_constraint": null, "bias_constraint": null}, "inbound_nodes": [[["LAYER_5", 0, 0, {}]]]}, {"name": "LAYER_7", "class_name": "BatchNormalization", "config": {"name": "LAYER_7", "trainable": true, "axis": 1, "momentum": 0.8999999761581421, "epsilon": 9.999999747378752e-06, "center": true, "scale": true, "beta_initializer": {"class_name": "Zeros", "config": {}}, "gamma_initializer": {"class_name": "Ones", "config": {}}, "moving_mean_initializer": {"class_name": "Zeros", "config": {}}, "moving_variance_initializer": {"class_name": "Ones", "config": {}}, "beta_regularizer": null, "gamma_regularizer": null, "beta_constraint": null, "gamma_constraint": null}, "inbound_nodes": [[["LAYER_6", 0, 0, {}]]]}, {"name": "LAYER_8", "class_name": "Conv2D", "config": {"name": "LAYER_8", "trainable": true, "filters": 96, "kernel_size": [1, 1], "strides": [1, 1], "padding": "valid", "data_format": "channels_first", "dilation_rate": [1, 1], "activation": "linear", "use_bias": false, "kernel_initializer": {"class_name": "Zeros", "config": {}}, "bias_initializer": {"class_name": "Zeros", "config": {}}, "kernel_regularizer": null, "bias_regularizer": null, "activity_regularizer": null, "kernel_constraint": null, "bias_constraint": null}, "inbound_nodes": [[["LAYER_7", 0, 0, {}]]]}, {"name": "LAYER_9", "class_name": "BatchNormalization", "config": {"name": "LAYER_9", "trainable": true, "axis": 1, "momentum": 0.8999999761581421, "epsilon": 9.999999747378752e-06, "center": true, "scale": true, "beta_initializer": {"class_name": "Zeros", "config": {}}, "gamma_initializer": {"class_name": "Ones", "config": {}}, "moving_mean_initializer": {"class_name": "Zeros", "config": {}}, "moving_variance_initializer": {"class_name": "Ones", "config": {}}, "beta_regularizer": null, "gamma_regularizer": null, "beta_constraint": null, "gamma_constraint": null}, "inbound_nodes": [[["LAYER_8", 0, 0, {}]]]}, {"name": "LAYER_10", "class_name": "ReLU", "config": {"name": "LAYER_10", "trainable": true, "max_value": 6.0, "negative_slope": 0.0, "threshold": 0.0}, "inbound_nodes": [[["LAYER_9", 0, 0, {}]]]}, {"name": "LAYER_11_pad", "class_name": "ZeroPadding2D", "config": {"name": "LAYER_11_pad", "trainable": true, "padding": [[1, 1], [1, 1]], "data_format": "channels_first"}, "inbound_nodes": [[["LAYER_10", 0, 0, {}]]]}, {"name": "LAYER_11", "class_name": "DepthwiseConv2D", "config": {"name": "LAYER_11", "trainable": true, "kernel_size": [3, 3], "strides": [2, 2], "padding": "valid", "data_format": "channels_first", "dilation_rate": [1, 1], "activation": "linear", "use_bias": false, "bias_initializer": {"class_name": "Zeros", "config": {}}, "bias_regularizer": null, "activity_regularizer": null, "bias_constraint": null, "depth_multiplier": 1, "depthwise_initializer": {"class_name": "VarianceScaling", "config": {"scale": 1.0, "mode": "fan_avg", "distribution": "uniform", "seed": null}}, "depthwise_regularizer": null, "depthwise_constraint": null}, "inbound_nodes": [[["LAYER_11_pad", 0, 0, {}]]]}, {"name": "LAYER_12", "class_name": "BatchNormalization", "config": {"name": "LAYER_12", "trainable": true, "axis": 1, "momentum": 0.8999999761581421, "epsilon": 9.999999747378752e-06, "center": true, "scale": true, "beta_initializer": {"class_name": "Zeros", "config": {}}, "gamma_initializer": {"class_name": "Ones", "config": {}}, "moving_mean_initializer": {"class_name": "Zeros", "config": {}}, "moving_variance_initializer": {"class_name": "Ones", "config": {}}, "beta_regularizer": null, "gamma_regularizer": null, "beta_constraint": null, "gamma_constraint": null}, "inbound_nodes": [[["LAYER_11", 0, 0, {}]]]}, {"name": "LAYER_13", "class_name": "ReLU", "config": {"name": "LAYER_13", "trainable": true, "max_value": 6.0, "negative_slope": 0.0, "threshold": 0.0}, "inbound_nodes": [[["LAYER_12", 0, 0, {}]]]}, {"name": "LAYER_14", "class_name": "Conv2D", "config": {"name": "LAYER_14", "trainable": true, "filters": 24, "kernel_size": [1, 1], "strides": [1, 1], "padding": "valid", "data_format": "channels_first", "dilation_rate": [1, 1], "activation": "linear", "use_bias": false, "kernel_initializer": {"class_name": "Zeros", "config": {}}, "bias_initializer": {"class_name": "Zeros", "config": {}}, "kernel_regularizer": null, "bias_regularizer": null, "activity_regularizer": null, "kernel_constraint": null, "bias_constraint": null}, "inbound_nodes": [[["LAYER_13", 0, 0, {}]]]}, {"name": "LAYER_15", "class_name": "BatchNormalization", "config": {"name": "LAYER_15", "trainable": true, "axis": 1, "momentum": 0.8999999761581421, "epsilon": 9.999999747378752e-06, "center": true, "scale": true, "beta_initializer": {"class_name": "Zeros", "config": {}}, "gamma_initializer": {"class_name": "Ones", "config": {}}, "moving_mean_initializer": {"class_name": "Zeros", "config": {}}, "moving_variance_initializer": {"class_name": "Ones", "config": {}}, "beta_regularizer": null, "gamma_regularizer": null, "beta_constraint": null, "gamma_constraint": null}, "inbound_nodes": [[["LAYER_14", 0, 0, {}]]]}, {"name": "LAYER_16", "class_name": "Conv2D", "config": {"name": "LAYER_16", "trainable": true, "filters": 144, "kernel_size": [1, 1], "strides": [1, 1], "padding": "valid", "data_format": "channels_first", "dilation_rate": [1, 1], "activation": "linear", "use_bias": false, "kernel_initializer": {"class_name": "Zeros", "config": {}}, "bias_initializer": {"class_name": "Zeros", "config": {}}, "kernel_regularizer": null, "bias_regularizer": null, "activity_regularizer": null, "kernel_constraint": null, "bias_constraint": null}, "inbound_nodes": [[["LAYER_15", 0, 0, {}]]]}, {"name": "LAYER_17", "class_name": "BatchNormalization", "config": {"name": "LAYER_17", "trainable": true, "axis": 1, "momentum": 0.8999999761581421, "epsilon": 9.999999747378752e-06, "center": true, "scale": true, "beta_initializer": {"class_name": "Zeros", "config": {}}, "gamma_initializer": {"class_name": "Ones", "config": {}}, "moving_mean_initializer": {"class_name": "Zeros", "config": {}}, "moving_variance_initializer": {"class_name": "Ones", "config": {}}, "beta_regularizer": null, "gamma_regularizer": null, "beta_constraint": null, "gamma_constraint": null}, "inbound_nodes": [[["LAYER_16", 0, 0, {}]]]}, {"name": "LAYER_18", "class_name": "ReLU", "config": {"name": "LAYER_18", "trainable": true, "max_value": 6.0, "negative_slope": 0.0, "threshold": 0.0}, "inbound_nodes": [[["LAYER_17", 0, 0, {}]]]}, {"name": "LAYER_19_pad", "class_name": "ZeroPadding2D", "config": {"name": "LAYER_19_pad", "trainable": true, "padding": [[1, 1], [1, 1]], "data_format": "channels_first"}, "inbound_nodes": [[["LAYER_18", 0, 0, {}]]]}, {"name": "LAYER_19", "class_name": "DepthwiseConv2D", "config": {"name": "LAYER_19", "trainable": true, "kernel_size": [3, 3], "strides": [1, 1], "padding": "valid", "data_format": "channels_first", "dilation_rate": [1, 1], "activation": "linear", "use_bias": false, "bias_initializer": {"class_name": "Zeros", "config": {}}, "bias_regularizer": null, "activity_regularizer": null, "bias_constraint": null, "depth_multiplier": 1, "depthwise_initializer": {"class_name": "VarianceScaling", "config": {"scale": 1.0, "mode": "fan_avg", "distribution": "uniform", "seed": null}}, "depthwise_regularizer": null, "depthwise_constraint": null}, "inbound_nodes": [[["LAYER_19_pad", 0, 0, {}]]]}, {"name": "LAYER_20", "class_name": "BatchNormalization", "config": {"name": "LAYER_20", "trainable": true, "axis": 1, "momentum": 0.8999999761581421, "epsilon": 9.999999747378752e-06, "center": true, "scale": true, "beta_initializer": {"class_name": "Zeros", "config": {}}, "gamma_initializer": {"class_name": "Ones", "config": {}}, "moving_mean_initializer": {"class_name": "Zeros", "config": {}}, "moving_variance_initializer": {"class_name": "Ones", "config": {}}, "beta_regularizer": null, "gamma_regularizer": null, "beta_constraint": null, "gamma_constraint": null}, "inbound_nodes": [[["LAYER_19", 0, 0, {}]]]}, {"name": "LAYER_21", "class_name": "ReLU", "config": {"name": "LAYER_21", "trainable": true, "max_value": 6.0, "negative_slope": 0.0, "threshold": 0.0}, "inbound_nodes": [[["LAYER_20", 0, 0, {}]]]}, {"name": "LAYER_22", "class_name": "Conv2D", "config": {"name": "LAYER_22", "trainable": true, "filters": 24, "kernel_size": [1, 1], "strides": [1, 1], "padding": "valid", "data_format": "channels_first", "dilation_rate": [1, 1], "activation": "linear", "use_bias": false, "kernel_initializer": {"class_name": "Zeros", "config": {}}, "bias_initializer": {"class_name": "Zeros", "config": {}}, "kernel_regularizer": null, "bias_regularizer": null, "activity_regularizer": null, "kernel_constraint": null, "bias_constraint": null}, "inbound_nodes": [[["LAYER_21", 0, 0, {}]]]}, {"name": "LAYER_23", "class_name": "BatchNormalization", "config": {"name": "LAYER_23", "trainable": true, "axis": 1, "momentum": 0.8999999761581421, "epsilon": 9.999999747378752e-06, "center": true, "scale": true, "beta_initializer": {"class_name": "Zeros", "config": {}}, "gamma_initializer": {"class_name": "Ones", "config": {}}, "moving_mean_initializer": {"class_name": "Zeros", "config": {}}, "moving_variance_initializer": {"class_name": "Ones", "config": {}}, "beta_regularizer": null, "gamma_regularizer": null, "beta_constraint": null, "gamma_constraint": null}, "inbound_nodes": [[["LAYER_22", 0, 0, {}]]]}, {"name": "LAYER_24", "class_name": "Add", "config": {"name": "LAYER_24", "trainable": true}, "inbound_nodes": [[["LAYER_15", 0, 0, {}], ["LAYER_23", 0, 0, {}]]]}, {"name": "LAYER_25", "class_name": "Conv2D", "config": {"name": "LAYER_25", "trainable": true, "filters": 144, "kernel_size": [1, 1], "strides": [1, 1], "padding": "valid", "data_format": "channels_first", "dilation_rate": [1, 1], "activation": "linear", "use_bias": false, "kernel_initializer": {"class_name": "Zeros", "config": {}}, "bias_initializer": {"class_name": "Zeros", "config": {}}, "kernel_regularizer": null, "bias_regularizer": null, "activity_regularizer": null, "kernel_constraint": null, "bias_constraint": null}, "inbound_nodes": [[["LAYER_24", 0, 0, {}]]]}, {"name": "LAYER_26", "class_name": "BatchNormalization", "config": {"name": "LAYER_26", "trainable": true, "axis": 1, "momentum": 0.8999999761581421, "epsilon": 9.999999747378752e-06, "center": true, "scale": true, "beta_initializer": {"class_name": "Zeros", "config": {}}, "gamma_initializer": {"class_name": "Ones", "config": {}}, "moving_mean_initializer": {"class_name": "Zeros", "config": {}}, "moving_variance_initializer": {"class_name": "Ones", "config": {}}, "beta_regularizer": null, "gamma_regularizer": null, "beta_constraint": null, "gamma_constraint": null}, "inbound_nodes": [[["LAYER_25", 0, 0, {}]]]}, {"name": "LAYER_27", "class_name": "ReLU", "config": {"name": "LAYER_27", "trainable": true, "max_value": 6.0, "negative_slope": 0.0, "threshold": 0.0}, "inbound_nodes": [[["LAYER_26", 0, 0, {}]]]}, {"name": "LAYER_28_pad", "class_name": "ZeroPadding2D", "config": {"name": "LAYER_28_pad", "trainable": true, "padding": [[1, 1], [1, 1]], "data_format": "channels_first"}, "inbound_nodes": [[["LAYER_27", 0, 0, {}]]]}, {"name": "LAYER_28", "class_name": "DepthwiseConv2D", "config": {"name": "LAYER_28", "trainable": true, "kernel_size": [3, 3], "strides": [2, 2], "padding": "valid", "data_format": "channels_first", "dilation_rate": [1, 1], "activation": "linear", "use_bias": false, "bias_initializer": {"class_name": "Zeros", "config": {}}, "bias_regularizer": null, "activity_regularizer": null, "bias_constraint": null, "depth_multiplier": 1, "depthwise_initializer": {"class_name": "VarianceScaling", "config": {"scale": 1.0, "mode": "fan_avg", "distribution": "uniform", "seed": null}}, "depthwise_regularizer": null, "depthwise_constraint": null}, "inbound_nodes": [[["LAYER_28_pad", 0, 0, {}]]]}, {"name": "LAYER_29", "class_name": "BatchNormalization", "config": {"name": "LAYER_29", "trainable": true, "axis": 1, "momentum": 0.8999999761581421, "epsilon": 9.999999747378752e-06, "center": true, "scale": true, "beta_initializer": {"class_name": "Zeros", "config": {}}, "gamma_initializer": {"class_name": "Ones", "config": {}}, "moving_mean_initializer": {"class_name": "Zeros", "config": {}}, "moving_variance_initializer": {"class_name": "Ones", "config": {}}, "beta_regularizer": null, "gamma_regularizer": null, "beta_constraint": null, "gamma_constraint": null}, "inbound_nodes": [[["LAYER_28", 0, 0, {}]]]}, {"name": "LAYER_30", "class_name": "ReLU", "config": {"name": "LAYER_30", "trainable": true, "max_value": 6.0, "negative_slope": 0.0, "threshold": 0.0}, "inbound_nodes": [[["LAYER_29", 0, 0, {}]]]}, {"name": "LAYER_31", "class_name": "Conv2D", "config": {"name": "LAYER_31", "trainable": true, "filters": 32, "kernel_size": [1, 1], "strides": [1, 1], "padding": "valid", "data_format": "channels_first", "dilation_rate": [1, 1], "activation": "linear", "use_bias": false, "kernel_initializer": {"class_name": "Zeros", "config": {}}, "bias_initializer": {"class_name": "Zeros", "config": {}}, "kernel_regularizer": null, "bias_regularizer": null, "activity_regularizer": null, "kernel_constraint": null, "bias_constraint": null}, "inbound_nodes": [[["LAYER_30", 0, 0, {}]]]}, {"name": "LAYER_32", "class_name": "BatchNormalization", "config": {"name": "LAYER_32", "trainable": true, "axis": 1, "momentum": 0.8999999761581421, "epsilon": 9.999999747378752e-06, "center": true, "scale": true, "beta_initializer": {"class_name": "Zeros", "config": {}}, "gamma_initializer": {"class_name": "Ones", "config": {}}, "moving_mean_initializer": {"class_name": "Zeros", "config": {}}, "moving_variance_initializer": {"class_name": "Ones", "config": {}}, "beta_regularizer": null, "gamma_regularizer": null, "beta_constraint": null, "gamma_constraint": null}, "inbound_nodes": [[["LAYER_31", 0, 0, {}]]]}, {"name": "LAYER_33", "class_name": "Conv2D", "config": {"name": "LAYER_33", "trainable": true, "filters": 192, "kernel_size": [1, 1], "strides": [1, 1], "padding": "valid", "data_format": "channels_first", "dilation_rate": [1, 1], "activation": "linear", "use_bias": false, "kernel_initializer": {"class_name": "Zeros", "config": {}}, "bias_initializer": {"class_name": "Zeros", "config": {}}, "kernel_regularizer": null, "bias_regularizer": null, "activity_regularizer": null, "kernel_constraint": null, "bias_constraint": null}, "inbound_nodes": [[["LAYER_32", 0, 0, {}]]]}, {"name": "LAYER_34", "class_name": "BatchNormalization", "config": {"name": "LAYER_34", "trainable": true, "axis": 1, "momentum": 0.8999999761581421, "epsilon": 9.999999747378752e-06, "center": true, "scale": true, "beta_initializer": {"class_name": "Zeros", "config": {}}, "gamma_initializer": {"class_name": "Ones", "config": {}}, "moving_mean_initializer": {"class_name": "Zeros", "config": {}}, "moving_variance_initializer": {"class_name": "Ones", "config": {}}, "beta_regularizer": null, "gamma_regularizer": null, "beta_constraint": null, "gamma_constraint": null}, "inbound_nodes": [[["LAYER_33", 0, 0, {}]]]}, {"name": "LAYER_35", "class_name": "ReLU", "config": {"name": "LAYER_35", "trainable": true, "max_value": 6.0, "negative_slope": 0.0, "threshold": 0.0}, "inbound_nodes": [[["LAYER_34", 0, 0, {}]]]}, {"name": "LAYER_36_pad", "class_name": "ZeroPadding2D", "config": {"name": "LAYER_36_pad", "trainable": true, "padding": [[1, 1], [1, 1]], "data_format": "channels_first"}, "inbound_nodes": [[["LAYER_35", 0, 0, {}]]]}, {"name": "LAYER_36", "class_name": "DepthwiseConv2D", "config": {"name": "LAYER_36", "trainable": true, "kernel_size": [3, 3], "strides": [1, 1], "padding": "valid", "data_format": "channels_first", "dilation_rate": [1, 1], "activation": "linear", "use_bias": false, "bias_initializer": {"class_name": "Zeros", "config": {}}, "bias_regularizer": null, "activity_regularizer": null, "bias_constraint": null, "depth_multiplier": 1, "depthwise_initializer": {"class_name": "VarianceScaling", "config": {"scale": 1.0, "mode": "fan_avg", "distribution": "uniform", "seed": null}}, "depthwise_regularizer": null, "depthwise_constraint": null}, "inbound_nodes": [[["LAYER_36_pad", 0, 0, {}]]]}, {"name": "LAYER_37", "class_name": "BatchNormalization", "config": {"name": "LAYER_37", "trainable": true, "axis": 1, "momentum": 0.8999999761581421, "epsilon": 9.999999747378752e-06, "center": true, "scale": true, "beta_initializer": {"class_name": "Zeros", "config": {}}, "gamma_initializer": {"class_name": "Ones", "config": {}}, "moving_mean_initializer": {"class_name": "Zeros", "config": {}}, "moving_variance_initializer": {"class_name": "Ones", "config": {}}, "beta_regularizer": null, "gamma_regularizer": null, "beta_constraint": null, "gamma_constraint": null}, "inbound_nodes": [[["LAYER_36", 0, 0, {}]]]}, {"name": "LAYER_38", "class_name": "ReLU", "config": {"name": "LAYER_38", "trainable": true, "max_value": 6.0, "negative_slope": 0.0, "threshold": 0.0}, "inbound_nodes": [[["LAYER_37", 0, 0, {}]]]}, {"name": "LAYER_39", "class_name": "Conv2D", "config": {"name": "LAYER_39", "trainable": true, "filters": 32, "kernel_size": [1, 1], "strides": [1, 1], "padding": "valid", "data_format": "channels_first", "dilation_rate": [1, 1], "activation": "linear", "use_bias": false, "kernel_initializer": {"class_name": "Zeros", "config": {}}, "bias_initializer": {"class_name": "Zeros", "config": {}}, "kernel_regularizer": null, "bias_regularizer": null, "activity_regularizer": null, "kernel_constraint": null, "bias_constraint": null}, "inbound_nodes": [[["LAYER_38", 0, 0, {}]]]}, {"name": "LAYER_40", "class_name": "BatchNormalization", "config": {"name": "LAYER_40", "trainable": true, "axis": 1, "momentum": 0.8999999761581421, "epsilon": 9.999999747378752e-06, "center": true, "scale": true, "beta_initializer": {"class_name": "Zeros", "config": {}}, "gamma_initializer": {"class_name": "Ones", "config": {}}, "moving_mean_initializer": {"class_name": "Zeros", "config": {}}, "moving_variance_initializer": {"class_name": "Ones", "config": {}}, "beta_regularizer": null, "gamma_regularizer": null, "beta_constraint": null, "gamma_constraint": null}, "inbound_nodes": [[["LAYER_39", 0, 0, {}]]]}, {"name": "LAYER_41", "class_name": "Add", "config": {"name": "LAYER_41", "trainable": true}, "inbound_nodes": [[["LAYER_32", 0, 0, {}], ["LAYER_40", 0, 0, {}]]]}, {"name": "LAYER_42", "class_name": "Conv2D", "config": {"name": "LAYER_42", "trainable": true, "filters": 192, "kernel_size": [1, 1], "strides": [1, 1], "padding": "valid", "data_format": "channels_first", "dilation_rate": [1, 1], "activation": "linear", "use_bias": false, "kernel_initializer": {"class_name": "Zeros", "config": {}}, "bias_initializer": {"class_name": "Zeros", "config": {}}, "kernel_regularizer": null, "bias_regularizer": null, "activity_regularizer": null, "kernel_constraint": null, "bias_constraint": null}, "inbound_nodes": [[["LAYER_41", 0, 0, {}]]]}, {"name": "LAYER_43", "class_name": "BatchNormalization", "config": {"name": "LAYER_43", "trainable": true, "axis": 1, "momentum": 0.8999999761581421, "epsilon": 9.999999747378752e-06, "center": true, "scale": true, "beta_initializer": {"class_name": "Zeros", "config": {}}, "gamma_initializer": {"class_name": "Ones", "config": {}}, "moving_mean_initializer": {"class_name": "Zeros", "config": {}}, "moving_variance_initializer": {"class_name": "Ones", "config": {}}, "beta_regularizer": null, "gamma_regularizer": null, "beta_constraint": null, "gamma_constraint": null}, "inbound_nodes": [[["LAYER_42", 0, 0, {}]]]}, {"name": "LAYER_44", "class_name": "ReLU", "config": {"name": "LAYER_44", "trainable": true, "max_value": 6.0, "negative_slope": 0.0, "threshold": 0.0}, "inbound_nodes": [[["LAYER_43", 0, 0, {}]]]}, {"name": "LAYER_45_pad", "class_name": "ZeroPadding2D", "config": {"name": "LAYER_45_pad", "trainable": true, "padding": [[1, 1], [1, 1]], "data_format": "channels_first"}, "inbound_nodes": [[["LAYER_44", 0, 0, {}]]]}, {"name": "LAYER_45", "class_name": "DepthwiseConv2D", "config": {"name": "LAYER_45", "trainable": true, "kernel_size": [3, 3], "strides": [1, 1], "padding": "valid", "data_format": "channels_first", "dilation_rate": [1, 1], "activation": "linear", "use_bias": false, "bias_initializer": {"class_name": "Zeros", "config": {}}, "bias_regularizer": null, "activity_regularizer": null, "bias_constraint": null, "depth_multiplier": 1, "depthwise_initializer": {"class_name": "VarianceScaling", "config": {"scale": 1.0, "mode": "fan_avg", "distribution": "uniform", "seed": null}}, "depthwise_regularizer": null, "depthwise_constraint": null}, "inbound_nodes": [[["LAYER_45_pad", 0, 0, {}]]]}, {"name": "LAYER_46", "class_name": "BatchNormalization", "config": {"name": "LAYER_46", "trainable": true, "axis": 1, "momentum": 0.8999999761581421, "epsilon": 9.999999747378752e-06, "center": true, "scale": true, "beta_initializer": {"class_name": "Zeros", "config": {}}, "gamma_initializer": {"class_name": "Ones", "config": {}}, "moving_mean_initializer": {"class_name": "Zeros", "config": {}}, "moving_variance_initializer": {"class_name": "Ones", "config": {}}, "beta_regularizer": null, "gamma_regularizer": null, "beta_constraint": null, "gamma_constraint": null}, "inbound_nodes": [[["LAYER_45", 0, 0, {}]]]}, {"name": "LAYER_47", "class_name": "ReLU", "config": {"name": "LAYER_47", "trainable": true, "max_value": 6.0, "negative_slope": 0.0, "threshold": 0.0}, "inbound_nodes": [[["LAYER_46", 0, 0, {}]]]}, {"name": "LAYER_48", "class_name": "Conv2D", "config": {"name": "LAYER_48", "trainable": true, "filters": 32, "kernel_size": [1, 1], "strides": [1, 1], "padding": "valid", "data_format": "channels_first", "dilation_rate": [1, 1], "activation": "linear", "use_bias": false, "kernel_initializer": {"class_name": "Zeros", "config": {}}, "bias_initializer": {"class_name": "Zeros", "config": {}}, "kernel_regularizer": null, "bias_regularizer": null, "activity_regularizer": null, "kernel_constraint": null, "bias_constraint": null}, "inbound_nodes": [[["LAYER_47", 0, 0, {}]]]}, {"name": "LAYER_49", "class_name": "BatchNormalization", "config": {"name": "LAYER_49", "trainable": true, "axis": 1, "momentum": 0.8999999761581421, "epsilon": 9.999999747378752e-06, "center": true, "scale": true, "beta_initializer": {"class_name": "Zeros", "config": {}}, "gamma_initializer": {"class_name": "Ones", "config": {}}, "moving_mean_initializer": {"class_name": "Zeros", "config": {}}, "moving_variance_initializer": {"class_name": "Ones", "config": {}}, "beta_regularizer": null, "gamma_regularizer": null, "beta_constraint": null, "gamma_constraint": null}, "inbound_nodes": [[["LAYER_48", 0, 0, {}]]]}, {"name": "LAYER_50", "class_name": "Add", "config": {"name": "LAYER_50", "trainable": true}, "inbound_nodes": [[["LAYER_41", 0, 0, {}], ["LAYER_49", 0, 0, {}]]]}, {"name": "LAYER_51", "class_name": "Conv2D", "config": {"name": "LAYER_51", "trainable": true, "filters": 192, "kernel_size": [1, 1], "strides": [1, 1], "padding": "valid", "data_format": "channels_first", "dilation_rate": [1, 1], "activation": "linear", "use_bias": false, "kernel_initializer": {"class_name": "Zeros", "config": {}}, "bias_initializer": {"class_name": "Zeros", "config": {}}, "kernel_regularizer": null, "bias_regularizer": null, "activity_regularizer": null, "kernel_constraint": null, "bias_constraint": null}, "inbound_nodes": [[["LAYER_50", 0, 0, {}]]]}, {"name": "LAYER_52", "class_name": "BatchNormalization", "config": {"name": "LAYER_52", "trainable": true, "axis": 1, "momentum": 0.8999999761581421, "epsilon": 9.999999747378752e-06, "center": true, "scale": true, "beta_initializer": {"class_name": "Zeros", "config": {}}, "gamma_initializer": {"class_name": "Ones", "config": {}}, "moving_mean_initializer": {"class_name": "Zeros", "config": {}}, "moving_variance_initializer": {"class_name": "Ones", "config": {}}, "beta_regularizer": null, "gamma_regularizer": null, "beta_constraint": null, "gamma_constraint": null}, "inbound_nodes": [[["LAYER_51", 0, 0, {}]]]}, {"name": "LAYER_53", "class_name": "ReLU", "config": {"name": "LAYER_53", "trainable": true, "max_value": 6.0, "negative_slope": 0.0, "threshold": 0.0}, "inbound_nodes": [[["LAYER_52", 0, 0, {}]]]}, {"name": "LAYER_54_pad", "class_name": "ZeroPadding2D", "config": {"name": "LAYER_54_pad", "trainable": true, "padding": [[1, 1], [1, 1]], "data_format": "channels_first"}, "inbound_nodes": [[["LAYER_53", 0, 0, {}]]]}, {"name": "LAYER_54", "class_name": "DepthwiseConv2D", "config": {"name": "LAYER_54", "trainable": true, "kernel_size": [3, 3], "strides": [2, 2], "padding": "valid", "data_format": "channels_first", "dilation_rate": [1, 1], "activation": "linear", "use_bias": false, "bias_initializer": {"class_name": "Zeros", "config": {}}, "bias_regularizer": null, "activity_regularizer": null, "bias_constraint": null, "depth_multiplier": 1, "depthwise_initializer": {"class_name": "VarianceScaling", "config": {"scale": 1.0, "mode": "fan_avg", "distribution": "uniform", "seed": null}}, "depthwise_regularizer": null, "depthwise_constraint": null}, "inbound_nodes": [[["LAYER_54_pad", 0, 0, {}]]]}, {"name": "LAYER_55", "class_name": "BatchNormalization", "config": {"name": "LAYER_55", "trainable": true, "axis": 1, "momentum": 0.8999999761581421, "epsilon": 9.999999747378752e-06, "center": true, "scale": true, "beta_initializer": {"class_name": "Zeros", "config": {}}, "gamma_initializer": {"class_name": "Ones", "config": {}}, "moving_mean_initializer": {"class_name": "Zeros", "config": {}}, "moving_variance_initializer": {"class_name": "Ones", "config": {}}, "beta_regularizer": null, "gamma_regularizer": null, "beta_constraint": null, "gamma_constraint": null}, "inbound_nodes": [[["LAYER_54", 0, 0, {}]]]}, {"name": "LAYER_56", "class_name": "ReLU", "config": {"name": "LAYER_56", "trainable": true, "max_value": 6.0, "negative_slope": 0.0, "threshold": 0.0}, "inbound_nodes": [[["LAYER_55", 0, 0, {}]]]}, {"name": "LAYER_57", "class_name": "Conv2D", "config": {"name": "LAYER_57", "trainable": true, "filters": 64, "kernel_size": [1, 1], "strides": [1, 1], "padding": "valid", "data_format": "channels_first", "dilation_rate": [1, 1], "activation": "linear", "use_bias": false, "kernel_initializer": {"class_name": "Zeros", "config": {}}, "bias_initializer": {"class_name": "Zeros", "config": {}}, "kernel_regularizer": null, "bias_regularizer": null, "activity_regularizer": null, "kernel_constraint": null, "bias_constraint": null}, "inbound_nodes": [[["LAYER_56", 0, 0, {}]]]}, {"name": "LAYER_58", "class_name": "BatchNormalization", "config": {"name": "LAYER_58", "trainable": true, "axis": 1, "momentum": 0.8999999761581421, "epsilon": 9.999999747378752e-06, "center": true, "scale": true, "beta_initializer": {"class_name": "Zeros", "config": {}}, "gamma_initializer": {"class_name": "Ones", "config": {}}, "moving_mean_initializer": {"class_name": "Zeros", "config": {}}, "moving_variance_initializer": {"class_name": "Ones", "config": {}}, "beta_regularizer": null, "gamma_regularizer": null, "beta_constraint": null, "gamma_constraint": null}, "inbound_nodes": [[["LAYER_57", 0, 0, {}]]]}, {"name": "LAYER_59", "class_name": "Conv2D", "config": {"name": "LAYER_59", "trainable": true, "filters": 384, "kernel_size": [1, 1], "strides": [1, 1], "padding": "valid", "data_format": "channels_first", "dilation_rate": [1, 1], "activation": "linear", "use_bias": false, "kernel_initializer": {"class_name": "Zeros", "config": {}}, "bias_initializer": {"class_name": "Zeros", "config": {}}, "kernel_regularizer": null, "bias_regularizer": null, "activity_regularizer": null, "kernel_constraint": null, "bias_constraint": null}, "inbound_nodes": [[["LAYER_58", 0, 0, {}]]]}, {"name": "LAYER_60", "class_name": "BatchNormalization", "config": {"name": "LAYER_60", "trainable": true, "axis": 1, "momentum": 0.8999999761581421, "epsilon": 9.999999747378752e-06, "center": true, "scale": true, "beta_initializer": {"class_name": "Zeros", "config": {}}, "gamma_initializer": {"class_name": "Ones", "config": {}}, "moving_mean_initializer": {"class_name": "Zeros", "config": {}}, "moving_variance_initializer": {"class_name": "Ones", "config": {}}, "beta_regularizer": null, "gamma_regularizer": null, "beta_constraint": null, "gamma_constraint": null}, "inbound_nodes": [[["LAYER_59", 0, 0, {}]]]}, {"name": "LAYER_61", "class_name": "ReLU", "config": {"name": "LAYER_61", "trainable": true, "max_value": 6.0, "negative_slope": 0.0, "threshold": 0.0}, "inbound_nodes": [[["LAYER_60", 0, 0, {}]]]}, {"name": "LAYER_62_pad", "class_name": "ZeroPadding2D", "config": {"name": "LAYER_62_pad", "trainable": true, "padding": [[1, 1], [1, 1]], "data_format": "channels_first"}, "inbound_nodes": [[["LAYER_61", 0, 0, {}]]]}, {"name": "LAYER_62", "class_name": "DepthwiseConv2D", "config": {"name": "LAYER_62", "trainable": true, "kernel_size": [3, 3], "strides": [1, 1], "padding": "valid", "data_format": "channels_first", "dilation_rate": [1, 1], "activation": "linear", "use_bias": false, "bias_initializer": {"class_name": "Zeros", "config": {}}, "bias_regularizer": null, "activity_regularizer": null, "bias_constraint": null, "depth_multiplier": 1, "depthwise_initializer": {"class_name": "VarianceScaling", "config": {"scale": 1.0, "mode": "fan_avg", "distribution": "uniform", "seed": null}}, "depthwise_regularizer": null, "depthwise_constraint": null}, "inbound_nodes": [[["LAYER_62_pad", 0, 0, {}]]]}, {"name": "LAYER_63", "class_name": "BatchNormalization", "config": {"name": "LAYER_63", "trainable": true, "axis": 1, "momentum": 0.8999999761581421, "epsilon": 9.999999747378752e-06, "center": true, "scale": true, "beta_initializer": {"class_name": "Zeros", "config": {}}, "gamma_initializer": {"class_name": "Ones", "config": {}}, "moving_mean_initializer": {"class_name": "Zeros", "config": {}}, "moving_variance_initializer": {"class_name": "Ones", "config": {}}, "beta_regularizer": null, "gamma_regularizer": null, "beta_constraint": null, "gamma_constraint": null}, "inbound_nodes": [[["LAYER_62", 0, 0, {}]]]}, {"name": "LAYER_64", "class_name": "ReLU", "config": {"name": "LAYER_64", "trainable": true, "max_value": 6.0, "negative_slope": 0.0, "threshold": 0.0}, "inbound_nodes": [[["LAYER_63", 0, 0, {}]]]}, {"name": "LAYER_65", "class_name": "Conv2D", "config": {"name": "LAYER_65", "trainable": true, "filters": 64, "kernel_size": [1, 1], "strides": [1, 1], "padding": "valid", "data_format": "channels_first", "dilation_rate": [1, 1], "activation": "linear", "use_bias": false, "kernel_initializer": {"class_name": "Zeros", "config": {}}, "bias_initializer": {"class_name": "Zeros", "config": {}}, "kernel_regularizer": null, "bias_regularizer": null, "activity_regularizer": null, "kernel_constraint": null, "bias_constraint": null}, "inbound_nodes": [[["LAYER_64", 0, 0, {}]]]}, {"name": "LAYER_66", "class_name": "BatchNormalization", "config": {"name": "LAYER_66", "trainable": true, "axis": 1, "momentum": 0.8999999761581421, "epsilon": 9.999999747378752e-06, "center": true, "scale": true, "beta_initializer": {"class_name": "Zeros", "config": {}}, "gamma_initializer": {"class_name": "Ones", "config": {}}, "moving_mean_initializer": {"class_name": "Zeros", "config": {}}, "moving_variance_initializer": {"class_name": "Ones", "config": {}}, "beta_regularizer": null, "gamma_regularizer": null, "beta_constraint": null, "gamma_constraint": null}, "inbound_nodes": [[["LAYER_65", 0, 0, {}]]]}, {"name": "LAYER_67", "class_name": "Add", "config": {"name": "LAYER_67", "trainable": true}, "inbound_nodes": [[["LAYER_58", 0, 0, {}], ["LAYER_66", 0, 0, {}]]]}, {"name": "LAYER_68", "class_name": "Conv2D", "config": {"name": "LAYER_68", "trainable": true, "filters": 384, "kernel_size": [1, 1], "strides": [1, 1], "padding": "valid", "data_format": "channels_first", "dilation_rate": [1, 1], "activation": "linear", "use_bias": false, "kernel_initializer": {"class_name": "Zeros", "config": {}}, "bias_initializer": {"class_name": "Zeros", "config": {}}, "kernel_regularizer": null, "bias_regularizer": null, "activity_regularizer": null, "kernel_constraint": null, "bias_constraint": null}, "inbound_nodes": [[["LAYER_67", 0, 0, {}]]]}, {"name": "LAYER_69", "class_name": "BatchNormalization", "config": {"name": "LAYER_69", "trainable": true, "axis": 1, "momentum": 0.8999999761581421, "epsilon": 9.999999747378752e-06, "center": true, "scale": true, "beta_initializer": {"class_name": "Zeros", "config": {}}, "gamma_initializer": {"class_name": "Ones", "config": {}}, "moving_mean_initializer": {"class_name": "Zeros", "config": {}}, "moving_variance_initializer": {"class_name": "Ones", "config": {}}, "beta_regularizer": null, "gamma_regularizer": null, "beta_constraint": null, "gamma_constraint": null}, "inbound_nodes": [[["LAYER_68", 0, 0, {}]]]}, {"name": "LAYER_70", "class_name": "ReLU", "config": {"name": "LAYER_70", "trainable": true, "max_value": 6.0, "negative_slope": 0.0, "threshold": 0.0}, "inbound_nodes": [[["LAYER_69", 0, 0, {}]]]}, {"name": "LAYER_71_pad", "class_name": "ZeroPadding2D", "config": {"name": "LAYER_71_pad", "trainable": true, "padding": [[1, 1], [1, 1]], "data_format": "channels_first"}, "inbound_nodes": [[["LAYER_70", 0, 0, {}]]]}, {"name": "LAYER_71", "class_name": "DepthwiseConv2D", "config": {"name": "LAYER_71", "trainable": true, "kernel_size": [3, 3], "strides": [1, 1], "padding": "valid", "data_format": "channels_first", "dilation_rate": [1, 1], "activation": "linear", "use_bias": false, "bias_initializer": {"class_name": "Zeros", "config": {}}, "bias_regularizer": null, "activity_regularizer": null, "bias_constraint": null, "depth_multiplier": 1, "depthwise_initializer": {"class_name": "VarianceScaling", "config": {"scale": 1.0, "mode": "fan_avg", "distribution": "uniform", "seed": null}}, "depthwise_regularizer": null, "depthwise_constraint": null}, "inbound_nodes": [[["LAYER_71_pad", 0, 0, {}]]]}, {"name": "LAYER_72", "class_name": "BatchNormalization", "config": {"name": "LAYER_72", "trainable": true, "axis": 1, "momentum": 0.8999999761581421, "epsilon": 9.999999747378752e-06, "center": true, "scale": true, "beta_initializer": {"class_name": "Zeros", "config": {}}, "gamma_initializer": {"class_name": "Ones", "config": {}}, "moving_mean_initializer": {"class_name": "Zeros", "config": {}}, "moving_variance_initializer": {"class_name": "Ones", "config": {}}, "beta_regularizer": null, "gamma_regularizer": null, "beta_constraint": null, "gamma_constraint": null}, "inbound_nodes": [[["LAYER_71", 0, 0, {}]]]}, {"name": "LAYER_73", "class_name": "ReLU", "config": {"name": "LAYER_73", "trainable": true, "max_value": 6.0, "negative_slope": 0.0, "threshold": 0.0}, "inbound_nodes": [[["LAYER_72", 0, 0, {}]]]}, {"name": "LAYER_74", "class_name": "Conv2D", "config": {"name": "LAYER_74", "trainable": true, "filters": 64, "kernel_size": [1, 1], "strides": [1, 1], "padding": "valid", "data_format": "channels_first", "dilation_rate": [1, 1], "activation": "linear", "use_bias": false, "kernel_initializer": {"class_name": "Zeros", "config": {}}, "bias_initializer": {"class_name": "Zeros", "config": {}}, "kernel_regularizer": null, "bias_regularizer": null, "activity_regularizer": null, "kernel_constraint": null, "bias_constraint": null}, "inbound_nodes": [[["LAYER_73", 0, 0, {}]]]}, {"name": "LAYER_75", "class_name": "BatchNormalization", "config": {"name": "LAYER_75", "trainable": true, "axis": 1, "momentum": 0.8999999761581421, "epsilon": 9.999999747378752e-06, "center": true, "scale": true, "beta_initializer": {"class_name": "Zeros", "config": {}}, "gamma_initializer": {"class_name": "Ones", "config": {}}, "moving_mean_initializer": {"class_name": "Zeros", "config": {}}, "moving_variance_initializer": {"class_name": "Ones", "config": {}}, "beta_regularizer": null, "gamma_regularizer": null, "beta_constraint": null, "gamma_constraint": null}, "inbound_nodes": [[["LAYER_74", 0, 0, {}]]]}, {"name": "LAYER_76", "class_name": "Add", "config": {"name": "LAYER_76", "trainable": true}, "inbound_nodes": [[["LAYER_67", 0, 0, {}], ["LAYER_75", 0, 0, {}]]]}, {"name": "LAYER_77", "class_name": "Conv2D", "config": {"name": "LAYER_77", "trainable": true, "filters": 384, "kernel_size": [1, 1], "strides": [1, 1], "padding": "valid", "data_format": "channels_first", "dilation_rate": [1, 1], "activation": "linear", "use_bias": false, "kernel_initializer": {"class_name": "Zeros", "config": {}}, "bias_initializer": {"class_name": "Zeros", "config": {}}, "kernel_regularizer": null, "bias_regularizer": null, "activity_regularizer": null, "kernel_constraint": null, "bias_constraint": null}, "inbound_nodes": [[["LAYER_76", 0, 0, {}]]]}, {"name": "LAYER_78", "class_name": "BatchNormalization", "config": {"name": "LAYER_78", "trainable": true, "axis": 1, "momentum": 0.8999999761581421, "epsilon": 9.999999747378752e-06, "center": true, "scale": true, "beta_initializer": {"class_name": "Zeros", "config": {}}, "gamma_initializer": {"class_name": "Ones", "config": {}}, "moving_mean_initializer": {"class_name": "Zeros", "config": {}}, "moving_variance_initializer": {"class_name": "Ones", "config": {}}, "beta_regularizer": null, "gamma_regularizer": null, "beta_constraint": null, "gamma_constraint": null}, "inbound_nodes": [[["LAYER_77", 0, 0, {}]]]}, {"name": "LAYER_79", "class_name": "ReLU", "config": {"name": "LAYER_79", "trainable": true, "max_value": 6.0, "negative_slope": 0.0, "threshold": 0.0}, "inbound_nodes": [[["LAYER_78", 0, 0, {}]]]}, {"name": "LAYER_80_pad", "class_name": "ZeroPadding2D", "config": {"name": "LAYER_80_pad", "trainable": true, "padding": [[1, 1], [1, 1]], "data_format": "channels_first"}, "inbound_nodes": [[["LAYER_79", 0, 0, {}]]]}, {"name": "LAYER_80", "class_name": "DepthwiseConv2D", "config": {"name": "LAYER_80", "trainable": true, "kernel_size": [3, 3], "strides": [1, 1], "padding": "valid", "data_format": "channels_first", "dilation_rate": [1, 1], "activation": "linear", "use_bias": false, "bias_initializer": {"class_name": "Zeros", "config": {}}, "bias_regularizer": null, "activity_regularizer": null, "bias_constraint": null, "depth_multiplier": 1, "depthwise_initializer": {"class_name": "VarianceScaling", "config": {"scale": 1.0, "mode": "fan_avg", "distribution": "uniform", "seed": null}}, "depthwise_regularizer": null, "depthwise_constraint": null}, "inbound_nodes": [[["LAYER_80_pad", 0, 0, {}]]]}, {"name": "LAYER_81", "class_name": "BatchNormalization", "config": {"name": "LAYER_81", "trainable": true, "axis": 1, "momentum": 0.8999999761581421, "epsilon": 9.999999747378752e-06, "center": true, "scale": true, "beta_initializer": {"class_name": "Zeros", "config": {}}, "gamma_initializer": {"class_name": "Ones", "config": {}}, "moving_mean_initializer": {"class_name": "Zeros", "config": {}}, "moving_variance_initializer": {"class_name": "Ones", "config": {}}, "beta_regularizer": null, "gamma_regularizer": null, "beta_constraint": null, "gamma_constraint": null}, "inbound_nodes": [[["LAYER_80", 0, 0, {}]]]}, {"name": "LAYER_82", "class_name": "ReLU", "config": {"name": "LAYER_82", "trainable": true, "max_value": 6.0, "negative_slope": 0.0, "threshold": 0.0}, "inbound_nodes": [[["LAYER_81", 0, 0, {}]]]}, {"name": "LAYER_83", "class_name": "Conv2D", "config": {"name": "LAYER_83", "trainable": true, "filters": 64, "kernel_size": [1, 1], "strides": [1, 1], "padding": "valid", "data_format": "channels_first", "dilation_rate": [1, 1], "activation": "linear", "use_bias": false, "kernel_initializer": {"class_name": "Zeros", "config": {}}, "bias_initializer": {"class_name": "Zeros", "config": {}}, "kernel_regularizer": null, "bias_regularizer": null, "activity_regularizer": null, "kernel_constraint": null, "bias_constraint": null}, "inbound_nodes": [[["LAYER_82", 0, 0, {}]]]}, {"name": "LAYER_84", "class_name": "BatchNormalization", "config": {"name": "LAYER_84", "trainable": true, "axis": 1, "momentum": 0.8999999761581421, "epsilon": 9.999999747378752e-06, "center": true, "scale": true, "beta_initializer": {"class_name": "Zeros", "config": {}}, "gamma_initializer": {"class_name": "Ones", "config": {}}, "moving_mean_initializer": {"class_name": "Zeros", "config": {}}, "moving_variance_initializer": {"class_name": "Ones", "config": {}}, "beta_regularizer": null, "gamma_regularizer": null, "beta_constraint": null, "gamma_constraint": null}, "inbound_nodes": [[["LAYER_83", 0, 0, {}]]]}, {"name": "LAYER_85", "class_name": "Add", "config": {"name": "LAYER_85", "trainable": true}, "inbound_nodes": [[["LAYER_76", 0, 0, {}], ["LAYER_84", 0, 0, {}]]]}, {"name": "LAYER_86", "class_name": "Conv2D", "config": {"name": "LAYER_86", "trainable": true, "filters": 384, "kernel_size": [1, 1], "strides": [1, 1], "padding": "valid", "data_format": "channels_first", "dilation_rate": [1, 1], "activation": "linear", "use_bias": false, "kernel_initializer": {"class_name": "Zeros", "config": {}}, "bias_initializer": {"class_name": "Zeros", "config": {}}, "kernel_regularizer": null, "bias_regularizer": null, "activity_regularizer": null, "kernel_constraint": null, "bias_constraint": null}, "inbound_nodes": [[["LAYER_85", 0, 0, {}]]]}, {"name": "LAYER_87", "class_name": "BatchNormalization", "config": {"name": "LAYER_87", "trainable": true, "axis": 1, "momentum": 0.8999999761581421, "epsilon": 9.999999747378752e-06, "center": true, "scale": true, "beta_initializer": {"class_name": "Zeros", "config": {}}, "gamma_initializer": {"class_name": "Ones", "config": {}}, "moving_mean_initializer": {"class_name": "Zeros", "config": {}}, "moving_variance_initializer": {"class_name": "Ones", "config": {}}, "beta_regularizer": null, "gamma_regularizer": null, "beta_constraint": null, "gamma_constraint": null}, "inbound_nodes": [[["LAYER_86", 0, 0, {}]]]}, {"name": "LAYER_88", "class_name": "ReLU", "config": {"name": "LAYER_88", "trainable": true, "max_value": 6.0, "negative_slope": 0.0, "threshold": 0.0}, "inbound_nodes": [[["LAYER_87", 0, 0, {}]]]}, {"name": "LAYER_89_pad", "class_name": "ZeroPadding2D", "config": {"name": "LAYER_89_pad", "trainable": true, "padding": [[1, 1], [1, 1]], "data_format": "channels_first"}, "inbound_nodes": [[["LAYER_88", 0, 0, {}]]]}, {"name": "LAYER_89", "class_name": "DepthwiseConv2D", "config": {"name": "LAYER_89", "trainable": true, "kernel_size": [3, 3], "strides": [1, 1], "padding": "valid", "data_format": "channels_first", "dilation_rate": [1, 1], "activation": "linear", "use_bias": false, "bias_initializer": {"class_name": "Zeros", "config": {}}, "bias_regularizer": null, "activity_regularizer": null, "bias_constraint": null, "depth_multiplier": 1, "depthwise_initializer": {"class_name": "VarianceScaling", "config": {"scale": 1.0, "mode": "fan_avg", "distribution": "uniform", "seed": null}}, "depthwise_regularizer": null, "depthwise_constraint": null}, "inbound_nodes": [[["LAYER_89_pad", 0, 0, {}]]]}, {"name": "LAYER_90", "class_name": "BatchNormalization", "config": {"name": "LAYER_90", "trainable": true, "axis": 1, "momentum": 0.8999999761581421, "epsilon": 9.999999747378752e-06, "center": true, "scale": true, "beta_initializer": {"class_name": "Zeros", "config": {}}, "gamma_initializer": {"class_name": "Ones", "config": {}}, "moving_mean_initializer": {"class_name": "Zeros", "config": {}}, "moving_variance_initializer": {"class_name": "Ones", "config": {}}, "beta_regularizer": null, "gamma_regularizer": null, "beta_constraint": null, "gamma_constraint": null}, "inbound_nodes": [[["LAYER_89", 0, 0, {}]]]}, {"name": "LAYER_91", "class_name": "ReLU", "config": {"name": "LAYER_91", "trainable": true, "max_value": 6.0, "negative_slope": 0.0, "threshold": 0.0}, "inbound_nodes": [[["LAYER_90", 0, 0, {}]]]}, {"name": "LAYER_92", "class_name": "Conv2D", "config": {"name": "LAYER_92", "trainable": true, "filters": 96, "kernel_size": [1, 1], "strides": [1, 1], "padding": "valid", "data_format": "channels_first", "dilation_rate": [1, 1], "activation": "linear", "use_bias": false, "kernel_initializer": {"class_name": "Zeros", "config": {}}, "bias_initializer": {"class_name": "Zeros", "config": {}}, "kernel_regularizer": null, "bias_regularizer": null, "activity_regularizer": null, "kernel_constraint": null, "bias_constraint": null}, "inbound_nodes": [[["LAYER_91", 0, 0, {}]]]}, {"name": "LAYER_93", "class_name": "BatchNormalization", "config": {"name": "LAYER_93", "trainable": true, "axis": 1, "momentum": 0.8999999761581421, "epsilon": 9.999999747378752e-06, "center": true, "scale": true, "beta_initializer": {"class_name": "Zeros", "config": {}}, "gamma_initializer": {"class_name": "Ones", "config": {}}, "moving_mean_initializer": {"class_name": "Zeros", "config": {}}, "moving_variance_initializer": {"class_name": "Ones", "config": {}}, "beta_regularizer": null, "gamma_regularizer": null, "beta_constraint": null, "gamma_constraint": null}, "inbound_nodes": [[["LAYER_92", 0, 0, {}]]]}, {"name": "LAYER_94", "class_name": "Conv2D", "config": {"name": "LAYER_94", "trainable": true, "filters": 576, "kernel_size": [1, 1], "strides": [1, 1], "padding": "valid", "data_format": "channels_first", "dilation_rate": [1, 1], "activation": "linear", "use_bias": false, "kernel_initializer": {"class_name": "Zeros", "config": {}}, "bias_initializer": {"class_name": "Zeros", "config": {}}, "kernel_regularizer": null, "bias_regularizer": null, "activity_regularizer": null, "kernel_constraint": null, "bias_constraint": null}, "inbound_nodes": [[["LAYER_93", 0, 0, {}]]]}, {"name": "LAYER_95", "class_name": "BatchNormalization", "config": {"name": "LAYER_95", "trainable": true, "axis": 1, "momentum": 0.8999999761581421, "epsilon": 9.999999747378752e-06, "center": true, "scale": true, "beta_initializer": {"class_name": "Zeros", "config": {}}, "gamma_initializer": {"class_name": "Ones", "config": {}}, "moving_mean_initializer": {"class_name": "Zeros", "config": {}}, "moving_variance_initializer": {"class_name": "Ones", "config": {}}, "beta_regularizer": null, "gamma_regularizer": null, "beta_constraint": null, "gamma_constraint": null}, "inbound_nodes": [[["LAYER_94", 0, 0, {}]]]}, {"name": "LAYER_96", "class_name": "ReLU", "config": {"name": "LAYER_96", "trainable": true, "max_value": 6.0, "negative_slope": 0.0, "threshold": 0.0}, "inbound_nodes": [[["LAYER_95", 0, 0, {}]]]}, {"name": "LAYER_97_pad", "class_name": "ZeroPadding2D", "config": {"name": "LAYER_97_pad", "trainable": true, "padding": [[1, 1], [1, 1]], "data_format": "channels_first"}, "inbound_nodes": [[["LAYER_96", 0, 0, {}]]]}, {"name": "LAYER_97", "class_name": "DepthwiseConv2D", "config": {"name": "LAYER_97", "trainable": true, "kernel_size": [3, 3], "strides": [1, 1], "padding": "valid", "data_format": "channels_first", "dilation_rate": [1, 1], "activation": "linear", "use_bias": false, "bias_initializer": {"class_name": "Zeros", "config": {}}, "bias_regularizer": null, "activity_regularizer": null, "bias_constraint": null, "depth_multiplier": 1, "depthwise_initializer": {"class_name": "VarianceScaling", "config": {"scale": 1.0, "mode": "fan_avg", "distribution": "uniform", "seed": null}}, "depthwise_regularizer": null, "depthwise_constraint": null}, "inbound_nodes": [[["LAYER_97_pad", 0, 0, {}]]]}, {"name": "LAYER_98", "class_name": "BatchNormalization", "config": {"name": "LAYER_98", "trainable": true, "axis": 1, "momentum": 0.8999999761581421, "epsilon": 9.999999747378752e-06, "center": true, "scale": true, "beta_initializer": {"class_name": "Zeros", "config": {}}, "gamma_initializer": {"class_name": "Ones", "config": {}}, "moving_mean_initializer": {"class_name": "Zeros", "config": {}}, "moving_variance_initializer": {"class_name": "Ones", "config": {}}, "beta_regularizer": null, "gamma_regularizer": null, "beta_constraint": null, "gamma_constraint": null}, "inbound_nodes": [[["LAYER_97", 0, 0, {}]]]}, {"name": "LAYER_99", "class_name": "ReLU", "config": {"name": "LAYER_99", "trainable": true, "max_value": 6.0, "negative_slope": 0.0, "threshold": 0.0}, "inbound_nodes": [[["LAYER_98", 0, 0, {}]]]}, {"name": "LAYER_100", "class_name": "Conv2D", "config": {"name": "LAYER_100", "trainable": true, "filters": 96, "kernel_size": [1, 1], "strides": [1, 1], "padding": "valid", "data_format": "channels_first", "dilation_rate": [1, 1], "activation": "linear", "use_bias": false, "kernel_initializer": {"class_name": "Zeros", "config": {}}, "bias_initializer": {"class_name": "Zeros", "config": {}}, "kernel_regularizer": null, "bias_regularizer": null, "activity_regularizer": null, "kernel_constraint": null, "bias_constraint": null}, "inbound_nodes": [[["LAYER_99", 0, 0, {}]]]}, {"name": "LAYER_101", "class_name": "BatchNormalization", "config": {"name": "LAYER_101", "trainable": true, "axis": 1, "momentum": 0.8999999761581421, "epsilon": 9.999999747378752e-06, "center": true, "scale": true, "beta_initializer": {"class_name": "Zeros", "config": {}}, "gamma_initializer": {"class_name": "Ones", "config": {}}, "moving_mean_initializer": {"class_name": "Zeros", "config": {}}, "moving_variance_initializer": {"class_name": "Ones", "config": {}}, "beta_regularizer": null, "gamma_regularizer": null, "beta_constraint": null, "gamma_constraint": null}, "inbound_nodes": [[["LAYER_100", 0, 0, {}]]]}, {"name": "LAYER_102", "class_name": "Add", "config": {"name": "LAYER_102", "trainable": true}, "inbound_nodes": [[["LAYER_93", 0, 0, {}], ["LAYER_101", 0, 0, {}]]]}, {"name": "LAYER_103", "class_name": "Conv2D", "config": {"name": "LAYER_103", "trainable": true, "filters": 576, "kernel_size": [1, 1], "strides": [1, 1], "padding": "valid", "data_format": "channels_first", "dilation_rate": [1, 1], "activation": "linear", "use_bias": false, "kernel_initializer": {"class_name": "Zeros", "config": {}}, "bias_initializer": {"class_name": "Zeros", "config": {}}, "kernel_regularizer": null, "bias_regularizer": null, "activity_regularizer": null, "kernel_constraint": null, "bias_constraint": null}, "inbound_nodes": [[["LAYER_102", 0, 0, {}]]]}, {"name": "LAYER_104", "class_name": "BatchNormalization", "config": {"name": "LAYER_104", "trainable": true, "axis": 1, "momentum": 0.8999999761581421, "epsilon": 9.999999747378752e-06, "center": true, "scale": true, "beta_initializer": {"class_name": "Zeros", "config": {}}, "gamma_initializer": {"class_name": "Ones", "config": {}}, "moving_mean_initializer": {"class_name": "Zeros", "config": {}}, "moving_variance_initializer": {"class_name": "Ones", "config": {}}, "beta_regularizer": null, "gamma_regularizer": null, "beta_constraint": null, "gamma_constraint": null}, "inbound_nodes": [[["LAYER_103", 0, 0, {}]]]}, {"name": "LAYER_105", "class_name": "ReLU", "config": {"name": "LAYER_105", "trainable": true, "max_value": 6.0, "negative_slope": 0.0, "threshold": 0.0}, "inbound_nodes": [[["LAYER_104", 0, 0, {}]]]}, {"name": "LAYER_106_pad", "class_name": "ZeroPadding2D", "config": {"name": "LAYER_106_pad", "trainable": true, "padding": [[1, 1], [1, 1]], "data_format": "channels_first"}, "inbound_nodes": [[["LAYER_105", 0, 0, {}]]]}, {"name": "LAYER_106", "class_name": "DepthwiseConv2D", "config": {"name": "LAYER_106", "trainable": true, "kernel_size": [3, 3], "strides": [1, 1], "padding": "valid", "data_format": "channels_first", "dilation_rate": [1, 1], "activation": "linear", "use_bias": false, "bias_initializer": {"class_name": "Zeros", "config": {}}, "bias_regularizer": null, "activity_regularizer": null, "bias_constraint": null, "depth_multiplier": 1, "depthwise_initializer": {"class_name": "VarianceScaling", "config": {"scale": 1.0, "mode": "fan_avg", "distribution": "uniform", "seed": null}}, "depthwise_regularizer": null, "depthwise_constraint": null}, "inbound_nodes": [[["LAYER_106_pad", 0, 0, {}]]]}, {"name": "LAYER_107", "class_name": "BatchNormalization", "config": {"name": "LAYER_107", "trainable": true, "axis": 1, "momentum": 0.8999999761581421, "epsilon": 9.999999747378752e-06, "center": true, "scale": true, "beta_initializer": {"class_name": "Zeros", "config": {}}, "gamma_initializer": {"class_name": "Ones", "config": {}}, "moving_mean_initializer": {"class_name": "Zeros", "config": {}}, "moving_variance_initializer": {"class_name": "Ones", "config": {}}, "beta_regularizer": null, "gamma_regularizer": null, "beta_constraint": null, "gamma_constraint": null}, "inbound_nodes": [[["LAYER_106", 0, 0, {}]]]}, {"name": "LAYER_108", "class_name": "ReLU", "config": {"name": "LAYER_108", "trainable": true, "max_value": 6.0, "negative_slope": 0.0, "threshold": 0.0}, "inbound_nodes": [[["LAYER_107", 0, 0, {}]]]}, {"name": "LAYER_109", "class_name": "Conv2D", "config": {"name": "LAYER_109", "trainable": true, "filters": 96, "kernel_size": [1, 1], "strides": [1, 1], "padding": "valid", "data_format": "channels_first", "dilation_rate": [1, 1], "activation": "linear", "use_bias": false, "kernel_initializer": {"class_name": "Zeros", "config": {}}, "bias_initializer": {"class_name": "Zeros", "config": {}}, "kernel_regularizer": null, "bias_regularizer": null, "activity_regularizer": null, "kernel_constraint": null, "bias_constraint": null}, "inbound_nodes": [[["LAYER_108", 0, 0, {}]]]}, {"name": "LAYER_110", "class_name": "BatchNormalization", "config": {"name": "LAYER_110", "trainable": true, "axis": 1, "momentum": 0.8999999761581421, "epsilon": 9.999999747378752e-06, "center": true, "scale": true, "beta_initializer": {"class_name": "Zeros", "config": {}}, "gamma_initializer": {"class_name": "Ones", "config": {}}, "moving_mean_initializer": {"class_name": "Zeros", "config": {}}, "moving_variance_initializer": {"class_name": "Ones", "config": {}}, "beta_regularizer": null, "gamma_regularizer": null, "beta_constraint": null, "gamma_constraint": null}, "inbound_nodes": [[["LAYER_109", 0, 0, {}]]]}, {"name": "LAYER_111", "class_name": "Add", "config": {"name": "LAYER_111", "trainable": true}, "inbound_nodes": [[["LAYER_102", 0, 0, {}], ["LAYER_110", 0, 0, {}]]]}, {"name": "LAYER_112", "class_name": "Conv2D", "config": {"name": "LAYER_112", "trainable": true, "filters": 576, "kernel_size": [1, 1], "strides": [1, 1], "padding": "valid", "data_format": "channels_first", "dilation_rate": [1, 1], "activation": "linear", "use_bias": false, "kernel_initializer": {"class_name": "Zeros", "config": {}}, "bias_initializer": {"class_name": "Zeros", "config": {}}, "kernel_regularizer": null, "bias_regularizer": null, "activity_regularizer": null, "kernel_constraint": null, "bias_constraint": null}, "inbound_nodes": [[["LAYER_111", 0, 0, {}]]]}, {"name": "LAYER_113", "class_name": "BatchNormalization", "config": {"name": "LAYER_113", "trainable": true, "axis": 1, "momentum": 0.8999999761581421, "epsilon": 9.999999747378752e-06, "center": true, "scale": true, "beta_initializer": {"class_name": "Zeros", "config": {}}, "gamma_initializer": {"class_name": "Ones", "config": {}}, "moving_mean_initializer": {"class_name": "Zeros", "config": {}}, "moving_variance_initializer": {"class_name": "Ones", "config": {}}, "beta_regularizer": null, "gamma_regularizer": null, "beta_constraint": null, "gamma_constraint": null}, "inbound_nodes": [[["LAYER_112", 0, 0, {}]]]}, {"name": "LAYER_114", "class_name": "ReLU", "config": {"name": "LAYER_114", "trainable": true, "max_value": 6.0, "negative_slope": 0.0, "threshold": 0.0}, "inbound_nodes": [[["LAYER_113", 0, 0, {}]]]}, {"name": "LAYER_115_pad", "class_name": "ZeroPadding2D", "config": {"name": "LAYER_115_pad", "trainable": true, "padding": [[1, 1], [1, 1]], "data_format": "channels_first"}, "inbound_nodes": [[["LAYER_114", 0, 0, {}]]]}, {"name": "LAYER_115", "class_name": "DepthwiseConv2D", "config": {"name": "LAYER_115", "trainable": true, "kernel_size": [3, 3], "strides": [2, 2], "padding": "valid", "data_format": "channels_first", "dilation_rate": [1, 1], "activation": "linear", "use_bias": false, "bias_initializer": {"class_name": "Zeros", "config": {}}, "bias_regularizer": null, "activity_regularizer": null, "bias_constraint": null, "depth_multiplier": 1, "depthwise_initializer": {"class_name": "VarianceScaling", "config": {"scale": 1.0, "mode": "fan_avg", "distribution": "uniform", "seed": null}}, "depthwise_regularizer": null, "depthwise_constraint": null}, "inbound_nodes": [[["LAYER_115_pad", 0, 0, {}]]]}, {"name": "LAYER_116", "class_name": "BatchNormalization", "config": {"name": "LAYER_116", "trainable": true, "axis": 1, "momentum": 0.8999999761581421, "epsilon": 9.999999747378752e-06, "center": true, "scale": true, "beta_initializer": {"class_name": "Zeros", "config": {}}, "gamma_initializer": {"class_name": "Ones", "config": {}}, "moving_mean_initializer": {"class_name": "Zeros", "config": {}}, "moving_variance_initializer": {"class_name": "Ones", "config": {}}, "beta_regularizer": null, "gamma_regularizer": null, "beta_constraint": null, "gamma_constraint": null}, "inbound_nodes": [[["LAYER_115", 0, 0, {}]]]}, {"name": "LAYER_117", "class_name": "ReLU", "config": {"name": "LAYER_117", "trainable": true, "max_value": 6.0, "negative_slope": 0.0, "threshold": 0.0}, "inbound_nodes": [[["LAYER_116", 0, 0, {}]]]}, {"name": "LAYER_118", "class_name": "Conv2D", "config": {"name": "LAYER_118", "trainable": true, "filters": 160, "kernel_size": [1, 1], "strides": [1, 1], "padding": "valid", "data_format": "channels_first", "dilation_rate": [1, 1], "activation": "linear", "use_bias": false, "kernel_initializer": {"class_name": "Zeros", "config": {}}, "bias_initializer": {"class_name": "Zeros", "config": {}}, "kernel_regularizer": null, "bias_regularizer": null, "activity_regularizer": null, "kernel_constraint": null, "bias_constraint": null}, "inbound_nodes": [[["LAYER_117", 0, 0, {}]]]}, {"name": "LAYER_119", "class_name": "BatchNormalization", "config": {"name": "LAYER_119", "trainable": true, "axis": 1, "momentum": 0.8999999761581421, "epsilon": 9.999999747378752e-06, "center": true, "scale": true, "beta_initializer": {"class_name": "Zeros", "config": {}}, "gamma_initializer": {"class_name": "Ones", "config": {}}, "moving_mean_initializer": {"class_name": "Zeros", "config": {}}, "moving_variance_initializer": {"class_name": "Ones", "config": {}}, "beta_regularizer": null, "gamma_regularizer": null, "beta_constraint": null, "gamma_constraint": null}, "inbound_nodes": [[["LAYER_118", 0, 0, {}]]]}, {"name": "LAYER_120", "class_name": "Conv2D", "config": {"name": "LAYER_120", "trainable": true, "filters": 960, "kernel_size": [1, 1], "strides": [1, 1], "padding": "valid", "data_format": "channels_first", "dilation_rate": [1, 1], "activation": "linear", "use_bias": false, "kernel_initializer": {"class_name": "Zeros", "config": {}}, "bias_initializer": {"class_name": "Zeros", "config": {}}, "kernel_regularizer": null, "bias_regularizer": null, "activity_regularizer": null, "kernel_constraint": null, "bias_constraint": null}, "inbound_nodes": [[["LAYER_119", 0, 0, {}]]]}, {"name": "LAYER_121", "class_name": "BatchNormalization", "config": {"name": "LAYER_121", "trainable": true, "axis": 1, "momentum": 0.8999999761581421, "epsilon": 9.999999747378752e-06, "center": true, "scale": true, "beta_initializer": {"class_name": "Zeros", "config": {}}, "gamma_initializer": {"class_name": "Ones", "config": {}}, "moving_mean_initializer": {"class_name": "Zeros", "config": {}}, "moving_variance_initializer": {"class_name": "Ones", "config": {}}, "beta_regularizer": null, "gamma_regularizer": null, "beta_constraint": null, "gamma_constraint": null}, "inbound_nodes": [[["LAYER_120", 0, 0, {}]]]}, {"name": "LAYER_122", "class_name": "ReLU", "config": {"name": "LAYER_122", "trainable": true, "max_value": 6.0, "negative_slope": 0.0, "threshold": 0.0}, "inbound_nodes": [[["LAYER_121", 0, 0, {}]]]}, {"name": "LAYER_123_pad", "class_name": "ZeroPadding2D", "config": {"name": "LAYER_123_pad", "trainable": true, "padding": [[1, 1], [1, 1]], "data_format": "channels_first"}, "inbound_nodes": [[["LAYER_122", 0, 0, {}]]]}, {"name": "LAYER_123", "class_name": "DepthwiseConv2D", "config": {"name": "LAYER_123", "trainable": true, "kernel_size": [3, 3], "strides": [1, 1], "padding": "valid", "data_format": "channels_first", "dilation_rate": [1, 1], "activation": "linear", "use_bias": false, "bias_initializer": {"class_name": "Zeros", "config": {}}, "bias_regularizer": null, "activity_regularizer": null, "bias_constraint": null, "depth_multiplier": 1, "depthwise_initializer": {"class_name": "VarianceScaling", "config": {"scale": 1.0, "mode": "fan_avg", "distribution": "uniform", "seed": null}}, "depthwise_regularizer": null, "depthwise_constraint": null}, "inbound_nodes": [[["LAYER_123_pad", 0, 0, {}]]]}, {"name": "LAYER_124", "class_name": "BatchNormalization", "config": {"name": "LAYER_124", "trainable": true, "axis": 1, "momentum": 0.8999999761581421, "epsilon": 9.999999747378752e-06, "center": true, "scale": true, "beta_initializer": {"class_name": "Zeros", "config": {}}, "gamma_initializer": {"class_name": "Ones", "config": {}}, "moving_mean_initializer": {"class_name": "Zeros", "config": {}}, "moving_variance_initializer": {"class_name": "Ones", "config": {}}, "beta_regularizer": null, "gamma_regularizer": null, "beta_constraint": null, "gamma_constraint": null}, "inbound_nodes": [[["LAYER_123", 0, 0, {}]]]}, {"name": "LAYER_125", "class_name": "ReLU", "config": {"name": "LAYER_125", "trainable": true, "max_value": 6.0, "negative_slope": 0.0, "threshold": 0.0}, "inbound_nodes": [[["LAYER_124", 0, 0, {}]]]}, {"name": "LAYER_126", "class_name": "Conv2D", "config": {"name": "LAYER_126", "trainable": true, "filters": 160, "kernel_size": [1, 1], "strides": [1, 1], "padding": "valid", "data_format": "channels_first", "dilation_rate": [1, 1], "activation": "linear", "use_bias": false, "kernel_initializer": {"class_name": "Zeros", "config": {}}, "bias_initializer": {"class_name": "Zeros", "config": {}}, "kernel_regularizer": null, "bias_regularizer": null, "activity_regularizer": null, "kernel_constraint": null, "bias_constraint": null}, "inbound_nodes": [[["LAYER_125", 0, 0, {}]]]}, {"name": "LAYER_127", "class_name": "BatchNormalization", "config": {"name": "LAYER_127", "trainable": true, "axis": 1, "momentum": 0.8999999761581421, "epsilon": 9.999999747378752e-06, "center": true, "scale": true, "beta_initializer": {"class_name": "Zeros", "config": {}}, "gamma_initializer": {"class_name": "Ones", "config": {}}, "moving_mean_initializer": {"class_name": "Zeros", "config": {}}, "moving_variance_initializer": {"class_name": "Ones", "config": {}}, "beta_regularizer": null, "gamma_regularizer": null, "beta_constraint": null, "gamma_constraint": null}, "inbound_nodes": [[["LAYER_126", 0, 0, {}]]]}, {"name": "LAYER_128", "class_name": "Add", "config": {"name": "LAYER_128", "trainable": true}, "inbound_nodes": [[["LAYER_119", 0, 0, {}], ["LAYER_127", 0, 0, {}]]]}, {"name": "LAYER_129", "class_name": "Conv2D", "config": {"name": "LAYER_129", "trainable": true, "filters": 960, "kernel_size": [1, 1], "strides": [1, 1], "padding": "valid", "data_format": "channels_first", "dilation_rate": [1, 1], "activation": "linear", "use_bias": false, "kernel_initializer": {"class_name": "Zeros", "config": {}}, "bias_initializer": {"class_name": "Zeros", "config": {}}, "kernel_regularizer": null, "bias_regularizer": null, "activity_regularizer": null, "kernel_constraint": null, "bias_constraint": null}, "inbound_nodes": [[["LAYER_128", 0, 0, {}]]]}, {"name": "LAYER_130", "class_name": "BatchNormalization", "config": {"name": "LAYER_130", "trainable": true, "axis": 1, "momentum": 0.8999999761581421, "epsilon": 9.999999747378752e-06, "center": true, "scale": true, "beta_initializer": {"class_name": "Zeros", "config": {}}, "gamma_initializer": {"class_name": "Ones", "config": {}}, "moving_mean_initializer": {"class_name": "Zeros", "config": {}}, "moving_variance_initializer": {"class_name": "Ones", "config": {}}, "beta_regularizer": null, "gamma_regularizer": null, "beta_constraint": null, "gamma_constraint": null}, "inbound_nodes": [[["LAYER_129", 0, 0, {}]]]}, {"name": "LAYER_131", "class_name": "ReLU", "config": {"name": "LAYER_131", "trainable": true, "max_value": 6.0, "negative_slope": 0.0, "threshold": 0.0}, "inbound_nodes": [[["LAYER_130", 0, 0, {}]]]}, {"name": "LAYER_132_pad", "class_name": "ZeroPadding2D", "config": {"name": "LAYER_132_pad", "trainable": true, "padding": [[1, 1], [1, 1]], "data_format": "channels_first"}, "inbound_nodes": [[["LAYER_131", 0, 0, {}]]]}, {"name": "LAYER_132", "class_name": "DepthwiseConv2D", "config": {"name": "LAYER_132", "trainable": true, "kernel_size": [3, 3], "strides": [1, 1], "padding": "valid", "data_format": "channels_first", "dilation_rate": [1, 1], "activation": "linear", "use_bias": false, "bias_initializer": {"class_name": "Zeros", "config": {}}, "bias_regularizer": null, "activity_regularizer": null, "bias_constraint": null, "depth_multiplier": 1, "depthwise_initializer": {"class_name": "VarianceScaling", "config": {"scale": 1.0, "mode": "fan_avg", "distribution": "uniform", "seed": null}}, "depthwise_regularizer": null, "depthwise_constraint": null}, "inbound_nodes": [[["LAYER_132_pad", 0, 0, {}]]]}, {"name": "LAYER_133", "class_name": "BatchNormalization", "config": {"name": "LAYER_133", "trainable": true, "axis": 1, "momentum": 0.8999999761581421, "epsilon": 9.999999747378752e-06, "center": true, "scale": true, "beta_initializer": {"class_name": "Zeros", "config": {}}, "gamma_initializer": {"class_name": "Ones", "config": {}}, "moving_mean_initializer": {"class_name": "Zeros", "config": {}}, "moving_variance_initializer": {"class_name": "Ones", "config": {}}, "beta_regularizer": null, "gamma_regularizer": null, "beta_constraint": null, "gamma_constraint": null}, "inbound_nodes": [[["LAYER_132", 0, 0, {}]]]}, {"name": "LAYER_134", "class_name": "ReLU", "config": {"name": "LAYER_134", "trainable": true, "max_value": 6.0, "negative_slope": 0.0, "threshold": 0.0}, "inbound_nodes": [[["LAYER_133", 0, 0, {}]]]}, {"name": "LAYER_135", "class_name": "Conv2D", "config": {"name": "LAYER_135", "trainable": true, "filters": 160, "kernel_size": [1, 1], "strides": [1, 1], "padding": "valid", "data_format": "channels_first", "dilation_rate": [1, 1], "activation": "linear", "use_bias": false, "kernel_initializer": {"class_name": "Zeros", "config": {}}, "bias_initializer": {"class_name": "Zeros", "config": {}}, "kernel_regularizer": null, "bias_regularizer": null, "activity_regularizer": null, "kernel_constraint": null, "bias_constraint": null}, "inbound_nodes": [[["LAYER_134", 0, 0, {}]]]}, {"name": "LAYER_136", "class_name": "BatchNormalization", "config": {"name": "LAYER_136", "trainable": true, "axis": 1, "momentum": 0.8999999761581421, "epsilon": 9.999999747378752e-06, "center": true, "scale": true, "beta_initializer": {"class_name": "Zeros", "config": {}}, "gamma_initializer": {"class_name": "Ones", "config": {}}, "moving_mean_initializer": {"class_name": "Zeros", "config": {}}, "moving_variance_initializer": {"class_name": "Ones", "config": {}}, "beta_regularizer": null, "gamma_regularizer": null, "beta_constraint": null, "gamma_constraint": null}, "inbound_nodes": [[["LAYER_135", 0, 0, {}]]]}, {"name": "LAYER_137", "class_name": "Add", "config": {"name": "LAYER_137", "trainable": true}, "inbound_nodes": [[["LAYER_128", 0, 0, {}], ["LAYER_136", 0, 0, {}]]]}, {"name": "LAYER_138", "class_name": "Conv2D", "config": {"name": "LAYER_138", "trainable": true, "filters": 960, "kernel_size": [1, 1], "strides": [1, 1], "padding": "valid", "data_format": "channels_first", "dilation_rate": [1, 1], "activation": "linear", "use_bias": false, "kernel_initializer": {"class_name": "Zeros", "config": {}}, "bias_initializer": {"class_name": "Zeros", "config": {}}, "kernel_regularizer": null, "bias_regularizer": null, "activity_regularizer": null, "kernel_constraint": null, "bias_constraint": null}, "inbound_nodes": [[["LAYER_137", 0, 0, {}]]]}, {"name": "LAYER_139", "class_name": "BatchNormalization", "config": {"name": "LAYER_139", "trainable": true, "axis": 1, "momentum": 0.8999999761581421, "epsilon": 9.999999747378752e-06, "center": true, "scale": true, "beta_initializer": {"class_name": "Zeros", "config": {}}, "gamma_initializer": {"class_name": "Ones", "config": {}}, "moving_mean_initializer": {"class_name": "Zeros", "config": {}}, "moving_variance_initializer": {"class_name": "Ones", "config": {}}, "beta_regularizer": null, "gamma_regularizer": null, "beta_constraint": null, "gamma_constraint": null}, "inbound_nodes": [[["LAYER_138", 0, 0, {}]]]}, {"name": "LAYER_140", "class_name": "ReLU", "config": {"name": "LAYER_140", "trainable": true, "max_value": 6.0, "negative_slope": 0.0, "threshold": 0.0}, "inbound_nodes": [[["LAYER_139", 0, 0, {}]]]}, {"name": "LAYER_141_pad", "class_name": "ZeroPadding2D", "config": {"name": "LAYER_141_pad", "trainable": true, "padding": [[1, 1], [1, 1]], "data_format": "channels_first"}, "inbound_nodes": [[["LAYER_140", 0, 0, {}]]]}, {"name": "LAYER_141", "class_name": "DepthwiseConv2D", "config": {"name": "LAYER_141", "trainable": true, "kernel_size": [3, 3], "strides": [1, 1], "padding": "valid", "data_format": "channels_first", "dilation_rate": [1, 1], "activation": "linear", "use_bias": false, "bias_initializer": {"class_name": "Zeros", "config": {}}, "bias_regularizer": null, "activity_regularizer": null, "bias_constraint": null, "depth_multiplier": 1, "depthwise_initializer": {"class_name": "VarianceScaling", "config": {"scale": 1.0, "mode": "fan_avg", "distribution": "uniform", "seed": null}}, "depthwise_regularizer": null, "depthwise_constraint": null}, "inbound_nodes": [[["LAYER_141_pad", 0, 0, {}]]]}, {"name": "LAYER_142", "class_name": "BatchNormalization", "config": {"name": "LAYER_142", "trainable": true, "axis": 1, "momentum": 0.8999999761581421, "epsilon": 9.999999747378752e-06, "center": true, "scale": true, "beta_initializer": {"class_name": "Zeros", "config": {}}, "gamma_initializer": {"class_name": "Ones", "config": {}}, "moving_mean_initializer": {"class_name": "Zeros", "config": {}}, "moving_variance_initializer": {"class_name": "Ones", "config": {}}, "beta_regularizer": null, "gamma_regularizer": null, "beta_constraint": null, "gamma_constraint": null}, "inbound_nodes": [[["LAYER_141", 0, 0, {}]]]}, {"name": "LAYER_143", "class_name": "ReLU", "config": {"name": "LAYER_143", "trainable": true, "max_value": 6.0, "negative_slope": 0.0, "threshold": 0.0}, "inbound_nodes": [[["LAYER_142", 0, 0, {}]]]}, {"name": "LAYER_144", "class_name": "Conv2D", "config": {"name": "LAYER_144", "trainable": true, "filters": 320, "kernel_size": [1, 1], "strides": [1, 1], "padding": "valid", "data_format": "channels_first", "dilation_rate": [1, 1], "activation": "linear", "use_bias": false, "kernel_initializer": {"class_name": "Zeros", "config": {}}, "bias_initializer": {"class_name": "Zeros", "config": {}}, "kernel_regularizer": null, "bias_regularizer": null, "activity_regularizer": null, "kernel_constraint": null, "bias_constraint": null}, "inbound_nodes": [[["LAYER_143", 0, 0, {}]]]}, {"name": "LAYER_145", "class_name": "BatchNormalization", "config": {"name": "LAYER_145", "trainable": true, "axis": 1, "momentum": 0.8999999761581421, "epsilon": 9.999999747378752e-06, "center": true, "scale": true, "beta_initializer": {"class_name": "Zeros", "config": {}}, "gamma_initializer": {"class_name": "Ones", "config": {}}, "moving_mean_initializer": {"class_name": "Zeros", "config": {}}, "moving_variance_initializer": {"class_name": "Ones", "config": {}}, "beta_regularizer": null, "gamma_regularizer": null, "beta_constraint": null, "gamma_constraint": null}, "inbound_nodes": [[["LAYER_144", 0, 0, {}]]]}, {"name": "LAYER_146", "class_name": "Conv2D", "config": {"name": "LAYER_146", "trainable": true, "filters": 1280, "kernel_size": [1, 1], "strides": [1, 1], "padding": "valid", "data_format": "channels_first", "dilation_rate": [1, 1], "activation": "linear", "use_bias": false, "kernel_initializer": {"class_name": "Zeros", "config": {}}, "bias_initializer": {"class_name": "Zeros", "config": {}}, "kernel_regularizer": null, "bias_regularizer": null, "activity_regularizer": null, "kernel_constraint": null, "bias_constraint": null}, "inbound_nodes": [[["LAYER_145", 0, 0, {}]]]}, {"name": "LAYER_147", "class_name": "BatchNormalization", "config": {"name": "LAYER_147", "trainable": true, "axis": 1, "momentum": 0.8999999761581421, "epsilon": 9.999999747378752e-06, "center": true, "scale": true, "beta_initializer": {"class_name": "Zeros", "config": {}}, "gamma_initializer": {"class_name": "Ones", "config": {}}, "moving_mean_initializer": {"class_name": "Zeros", "config": {}}, "moving_variance_initializer": {"class_name": "Ones", "config": {}}, "beta_regularizer": null, "gamma_regularizer": null, "beta_constraint": null, "gamma_constraint": null}, "inbound_nodes": [[["LAYER_146", 0, 0, {}]]]}, {"name": "LAYER_148", "class_name": "ReLU", "config": {"name": "LAYER_148", "trainable": true, "max_value": 6.0, "negative_slope": 0.0, "threshold": 0.0}, "inbound_nodes": [[["LAYER_147", 0, 0, {}]]]}, {"name": "LAYER_149", "class_name": "ZeroPadding2D", "config": {"name": "LAYER_149", "trainable": true, "padding": [[0, 0], [0, 0]], "data_format": "channels_first"}, "inbound_nodes": [[["LAYER_148", 0, 0, {}]]]}, {"name": "LAYER_150", "class_name": "AveragePooling2D", "config": {"name": "LAYER_150", "trainable": true, "pool_size": [7, 7], "padding": "valid", "strides": [1, 1], "data_format": "channels_first"}, "inbound_nodes": [[["LAYER_149", 0, 0, {}]]]}, {"name": "LAYER_151", "class_name": "Reshape", "config": {"name": "LAYER_151", "trainable": true, "target_shape": [-1, 1280]}, "inbound_nodes": [[["LAYER_150", 0, 0, {}]]]}, {"name": "LAYER_152", "class_name": "Dense", "config": {"name": "LAYER_152", "trainable": true, "units": 10, "activation": "linear", "use_bias": true, "kernel_initializer": {"class_name": "Zeros", "config": {}}, "bias_initializer": {"class_name": "Zeros", "config": {}}, "kernel_regularizer": null, "bias_regularizer": null, "activity_regularizer": null, "kernel_constraint": null, "bias_constraint": null}, "inbound_nodes": [[["LAYER_151", 0, 0, {}]]]}], "input_layers": [["input_0", 0, 0]], "output_layers": [["LAYER_152", 0, 0]]}}}, "weightsManifest": [{"paths": ["group1-shard1of1.bin"], "weights": [{"name": "LAYER_0/kernel", "shape": [3, 3, 3, 32], "dtype": "float32", "quantization": {"min": -0.882695198059082, "scale": 0.010030627250671387, "dtype": "uint8"}}, {"name": "LAYER_1/gamma", "shape": [32], "dtype": "float32", "quantization": {"min": -0.4109605550765991, "scale": 0.003805190324783325, "dtype": "uint8"}}, {"name": "LAYER_1/beta", "shape": [32], "dtype": "float32", "quantization": {"min": -0.5896506762972065, "scale": 0.006272879535076665, "dtype": "uint8"}}, {"name": "LAYER_1/moving_mean", "shape": [32], "dtype": "float32", "quantization": {"min": -0.3229330305959664, "scale": 0.005766661260642257, "dtype": "uint8"}}, {"name": "LAYER_1/moving_variance", "shape": [32], "dtype": "float32", "quantization": {"min": 0.0005878077354282141, "scale": 0.6005771099872814, "dtype": "uint8"}}, {"name": "LAYER_100/kernel", "shape": [1, 1, 576, 96], "dtype": "float32", "quantization": {"min": -0.26194224357604984, "scale": 0.002201195324168486, "dtype": "uint8"}}, {"name": "LAYER_101/gamma", "shape": [96], "dtype": "float32", "quantization": {"min": 0.07060330361127853, "scale": 0.0014463946223258971, "dtype": "uint8"}}, {"name": "LAYER_101/beta", "shape": [96], "dtype": "float32", "quantization": {"min": -1.9770034314473483e-07, "scale": 2.038147867471493e-09, "dtype": "uint8"}}, {"name": "LAYER_101/moving_mean", "shape": [96], "dtype": "float32", "quantization": {"min": -0.4340646299661375, "scale": 0.003239288283329384, "dtype": "uint8"}}, {"name": "LAYER_101/moving_variance", "shape": [96], "dtype": "float32", "quantization": {"min": 0.025160396471619606, "scale": 0.00014326501564652312, "dtype": "uint8"}}, {"name": "LAYER_103/kernel", "shape": [1, 1, 96, 576], "dtype": "float32", "quantization": {"min": -0.3248179809719908, "scale": 0.002424014783373066, "dtype": "uint8"}}, {"name": "LAYER_104/gamma", "shape": [576], "dtype": "float32", "quantization": {"min": -0.001670977360039365, "scale": 0.001670977360039365, "dtype": "uint8"}}, {"name": "LAYER_104/beta", "shape": [576], "dtype": "float32", "quantization": {"min": -0.35321118761511405, "scale": 0.002419254709692562, "dtype": "uint8"}}, {"name": "LAYER_104/moving_mean", "shape": [576], "dtype": "float32", "quantization": {"min": -5.455709541303233e-07, "scale": 3.409818463314521e-09, "dtype": "uint8"}}, {"name": "LAYER_104/moving_variance", "shape": [576], "dtype": "float32", "quantization": {"min": 0.00045740429777652025, "scale": 0.0019003487169267793, "dtype": "uint8"}}, {"name": "LAYER_106/depthwise_kernel", "shape": [3, 3, 576, 1], "dtype": "float32", "quantization": {"min": -0.473288845314699, "scale": 0.004342099498299991, "dtype": "uint8"}}, {"name": "LAYER_107/gamma", "shape": [576], "dtype": "float32", "quantization": {"min": -0.21510262804872848, "scale": 0.0032591307280110376, "dtype": "uint8"}}, {"name": "LAYER_107/beta", "shape": [576], "dtype": "float32", "quantization": {"min": -0.6288478290333467, "scale": 0.004366998812731574, "dtype": "uint8"}}, {"name": "LAYER_107/moving_mean", "shape": [576], "dtype": "float32", "quantization": {"min": -0.1285928397202024, "scale": 0.0009891756901554032, "dtype": "uint8"}}, {"name": "LAYER_107/moving_variance", "shape": [576], "dtype": "float32", "quantization": {"min": 5.605193857299268e-45, "scale": 2.4829288104585574e-05, "dtype": "uint8"}}, {"name": "LAYER_109/kernel", "shape": [1, 1, 576, 96], "dtype": "float32", "quantization": {"min": -0.5483782599954043, "scale": 0.003808182361079197, "dtype": "uint8"}}, {"name": "LAYER_11/depthwise_kernel", "shape": [3, 3, 96, 1], "dtype": "float32", "quantization": {"min": -0.5351022271549, "scale": 0.004459185226290833, "dtype": "uint8"}}, {"name": "LAYER_110/gamma", "shape": [96], "dtype": "float32", "quantization": {"min": 0.053237948566675186, "scale": 0.0019122150452697978, "dtype": "uint8"}}, {"name": "LAYER_110/beta", "shape": [96], "dtype": "float32", "quantization": {"min": -2.5848245721082257e-07, "scale": 1.9289735612747953e-09, "dtype": "uint8"}}, {"name": "LAYER_110/moving_mean", "shape": [96], "dtype": "float32", "quantization": {"min": -0.5561618968552234, "scale": 0.004150461916830025, "dtype": "uint8"}}, {"name": "LAYER_110/moving_variance", "shape": [96], "dtype": "float32", "quantization": {"min": 0.0214521586894989, "scale": 0.0001827651671334809, "dtype": "uint8"}}, {"name": "LAYER_112/kernel", "shape": [1, 1, 96, 576], "dtype": "float32", "quantization": {"min": -0.4226152413031634, "scale": 0.003226070544298957, "dtype": "uint8"}}, {"name": "LAYER_113/gamma", "shape": [576], "dtype": "float32", "quantization": {"min": -0.018582270338254814, "scale": 0.0015485225281879013, "dtype": "uint8"}}, {"name": "LAYER_113/beta", "shape": [576], "dtype": "float32", "quantization": {"min": -0.47576759925075607, "scale": 0.0030303668742086374, "dtype": "uint8"}}, {"name": "LAYER_113/moving_mean", "shape": [576], "dtype": "float32", "quantization": {"min": -1.1138708386812033e-06, "scale": 6.438559761163025e-09, "dtype": "uint8"}}, {"name": "LAYER_113/moving_variance", "shape": [576], "dtype": "float32", "quantization": {"min": 0.003862963290885091, "scale": 0.003641452095197404, "dtype": "uint8"}}, {"name": "LAYER_115/depthwise_kernel", "shape": [3, 3, 576, 1], "dtype": "float32", "quantization": {"min": -0.27788936250350055, "scale": 0.002121292843538172, "dtype": "uint8"}}, {"name": "LAYER_116/gamma", "shape": [576], "dtype": "float32", "quantization": {"min": 0.03829065337777138, "scale": 0.0018210054466537401, "dtype": "uint8"}}, {"name": "LAYER_116/beta", "shape": [576], "dtype": "float32", "quantization": {"min": -0.2846322251301186, "scale": 0.0034293039172303445, "dtype": "uint8"}}, {"name": "LAYER_116/moving_mean", "shape": [576], "dtype": "float32", "quantization": {"min": -0.12814812964084102, "scale": 0.000728114372959324, "dtype": "uint8"}}, {"name": "LAYER_116/moving_variance", "shape": [576], "dtype": "float32", "quantization": {"min": 5.605193857299268e-45, "scale": 2.8755026412945166e-05, "dtype": "uint8"}}, {"name": "LAYER_118/kernel", "shape": [1, 1, 576, 160], "dtype": "float32", "quantization": {"min": -0.34455664192928986, "scale": 0.002670981720382092, "dtype": "uint8"}}, {"name": "LAYER_119/gamma", "shape": [160], "dtype": "float32", "quantization": {"min": 0.19087007641792297, "scale": 0.0007633289870093851, "dtype": "uint8"}}, {"name": "LAYER_119/beta", "shape": [160], "dtype": "float32", "quantization": {"min": -3.7420657443309374e-07, "scale": 2.65394733640492e-09, "dtype": "uint8"}}, {"name": "LAYER_119/moving_mean", "shape": [160], "dtype": "float32", "quantization": {"min": -1.5285591660761364, "scale": 0.0091530488986595, "dtype": "uint8"}}, {"name": "LAYER_119/moving_variance", "shape": [160], "dtype": "float32", "quantization": {"min": 0.09487301111221313, "scale": 0.0008975509335012997, "dtype": "uint8"}}, {"name": "LAYER_12/gamma", "shape": [96], "dtype": "float32", "quantization": {"min": -0.018915147991741404, "scale": 0.0031525246652902342, "dtype": "uint8"}}, {"name": "LAYER_12/beta", "shape": [96], "dtype": "float32", "quantization": {"min": -0.43294771968149676, "scale": 0.007097503601336012, "dtype": "uint8"}}, {"name": "LAYER_12/moving_mean", "shape": [96], "dtype": "float32", "quantization": {"min": -1.200954332071192, "scale": 0.00727851110346177, "dtype": "uint8"}}, {"name": "LAYER_12/moving_variance", "shape": [96], "dtype": "float32", "quantization": {"min": 1.8308466964711556e-09, "scale": 0.000831487300181737, "dtype": "uint8"}}, {"name": "LAYER_120/kernel", "shape": [1, 1, 160, 960], "dtype": "float32", "quantization": {"min": -0.22609814160010394, "scale": 0.001983317031579859, "dtype": "uint8"}}, {"name": "LAYER_121/gamma", "shape": [960], "dtype": "float32", "quantization": {"min": -0.0016014100381118409, "scale": 0.0016014100381118409, "dtype": "uint8"}}, {"name": "LAYER_121/beta", "shape": [960], "dtype": "float32", "quantization": {"min": -0.554648509796928, "scale": 0.003488355407527849, "dtype": "uint8"}}, {"name": "LAYER_121/moving_mean", "shape": [960], "dtype": "float32", "quantization": {"min": -3.809992665760636e-07, "scale": 2.741001917813407e-09, "dtype": "uint8"}}, {"name": "LAYER_121/moving_variance", "shape": [960], "dtype": "float32", "quantization": {"min": 0.02006099931895733, "scale": 0.0006735347138316024, "dtype": "uint8"}}, {"name": "LAYER_123/depthwise_kernel", "shape": [3, 3, 960, 1], "dtype": "float32", "quantization": {"min": -0.612740382493711, "scale": 0.004315073116152895, "dtype": "uint8"}}, {"name": "LAYER_124/gamma", "shape": [960], "dtype": "float32", "quantization": {"min": 0.0330231674015522, "scale": 0.0033477844414757747, "dtype": "uint8"}}, {"name": "LAYER_124/beta", "shape": [960], "dtype": "float32", "quantization": {"min": -0.741070490841772, "scale": 0.004385032490188, "dtype": "uint8"}}, {"name": "LAYER_124/moving_mean", "shape": [960], "dtype": "float32", "quantization": {"min": -0.10761886791271322, "scale": 0.0006293501047527089, "dtype": "uint8"}}, {"name": "LAYER_124/moving_variance", "shape": [960], "dtype": "float32", "quantization": {"min": 5.605193857299268e-45, "scale": 3.0489572707344502e-05, "dtype": "uint8"}}, {"name": "LAYER_126/kernel", "shape": [1, 1, 960, 160], "dtype": "float32", "quantization": {"min": -0.2552338242530823, "scale": 0.0019335895776748657, "dtype": "uint8"}}, {"name": "LAYER_127/gamma", "shape": [160], "dtype": "float32", "quantization": {"min": 0.14320790767669678, "scale": 0.0010190152654460832, "dtype": "uint8"}}, {"name": "LAYER_127/beta", "shape": [160], "dtype": "float32", "quantization": {"min": -3.086197914532985e-07, "scale": 2.1887928471865142e-09, "dtype": "uint8"}}, {"name": "LAYER_127/moving_mean", "shape": [160], "dtype": "float32", "quantization": {"min": -0.4108848770459493, "scale": 0.003452814092823103, "dtype": "uint8"}}, {"name": "LAYER_127/moving_variance", "shape": [160], "dtype": "float32", "quantization": {"min": 0.025799324735999107, "scale": 0.00013588467503295224, "dtype": "uint8"}}, {"name": "LAYER_129/kernel", "shape": [1, 1, 160, 960], "dtype": "float32", "quantization": {"min": -0.2540104585535386, "scale": 0.0019844567074495203, "dtype": "uint8"}}, {"name": "LAYER_130/gamma", "shape": [960], "dtype": "float32", "quantization": {"min": -0.09281900408221226, "scale": 0.0015216230177411845, "dtype": "uint8"}}, {"name": "LAYER_130/beta", "shape": [960], "dtype": "float32", "quantization": {"min": -0.41216882420521156, "scale": 0.002659153704549752, "dtype": "uint8"}}, {"name": "LAYER_130/moving_mean", "shape": [960], "dtype": "float32", "quantization": {"min": -5.602441373251649e-07, "scale": 4.5548303847574384e-09, "dtype": "uint8"}}, {"name": "LAYER_130/moving_variance", "shape": [960], "dtype": "float32", "quantization": {"min": 0.0007786588976159692, "scale": 0.0019993792027782867, "dtype": "uint8"}}, {"name": "LAYER_132/depthwise_kernel", "shape": [3, 3, 960, 1], "dtype": "float32", "quantization": {"min": -0.4891396164894104, "scale": 0.003882060448328654, "dtype": "uint8"}}, {"name": "LAYER_133/gamma", "shape": [960], "dtype": "float32", "quantization": {"min": 0.010592775419354439, "scale": 0.0021975949041399302, "dtype": "uint8"}}, {"name": "LAYER_133/beta", "shape": [960], "dtype": "float32", "quantization": {"min": -0.4387973869548124, "scale": 0.003455097535077263, "dtype": "uint8"}}, {"name": "LAYER_133/moving_mean", "shape": [960], "dtype": "float32", "quantization": {"min": -0.13826409975687665, "scale": 0.0008133182338639802, "dtype": "uint8"}}, {"name": "LAYER_133/moving_variance", "shape": [960], "dtype": "float32", "quantization": {"min": 5.605193857299268e-45, "scale": 3.526546061038971e-05, "dtype": "uint8"}}, {"name": "LAYER_135/kernel", "shape": [1, 1, 960, 160], "dtype": "float32", "quantization": {"min": -0.2993990282217662, "scale": 0.002185394366582235, "dtype": "uint8"}}, {"name": "LAYER_136/gamma", "shape": [160], "dtype": "float32", "quantization": {"min": 0.1539335548877716, "scale": 0.0029612626515182795, "dtype": "uint8"}}, {"name": "LAYER_136/beta", "shape": [160], "dtype": "float32", "quantization": {"min": -2.1988095877041619e-07, "scale": 1.6532402915068886e-09, "dtype": "uint8"}}, {"name": "LAYER_136/moving_mean", "shape": [160], "dtype": "float32", "quantization": {"min": -0.4170141588239109, "scale": 0.0030889937690660066, "dtype": "uint8"}}, {"name": "LAYER_136/moving_variance", "shape": [160], "dtype": "float32", "quantization": {"min": 0.0251928698271513, "scale": 0.0008399099184601915, "dtype": "uint8"}}, {"name": "LAYER_138/kernel", "shape": [1, 1, 160, 960], "dtype": "float32", "quantization": {"min": -0.2601504970999325, "scale": 0.0023867018082562616, "dtype": "uint8"}}, {"name": "LAYER_139/gamma", "shape": [960], "dtype": "float32", "quantization": {"min": 0.0013222022680565715, "scale": 0.0019120486640353122, "dtype": "uint8"}}, {"name": "LAYER_139/beta", "shape": [960], "dtype": "float32", "quantization": {"min": -0.2916947425580492, "scale": 0.001846169256696514, "dtype": "uint8"}}, {"name": "LAYER_139/moving_mean", "shape": [960], "dtype": "float32", "quantization": {"min": -1.0719689534394716e-06, "scale": 6.8278277289138325e-09, "dtype": "uint8"}}, {"name": "LAYER_139/moving_variance", "shape": [960], "dtype": "float32", "quantization": {"min": 0.0009636632748879492, "scale": 0.004567936451548674, "dtype": "uint8"}}, {"name": "LAYER_14/kernel", "shape": [1, 1, 96, 24], "dtype": "float32", "quantization": {"min": -0.8770764598659441, "scale": 0.006695240151648428, "dtype": "uint8"}}, {"name": "LAYER_141/depthwise_kernel", "shape": [3, 3, 960, 1], "dtype": "float32", "quantization": {"min": -0.2634539628730101, "scale": 0.0018684678217943977, "dtype": "uint8"}}, {"name": "LAYER_142/gamma", "shape": [960], "dtype": "float32", "quantization": {"min": 0.01866557076573372, "scale": 0.002342976469035242, "dtype": "uint8"}}, {"name": "LAYER_142/beta", "shape": [960], "dtype": "float32", "quantization": {"min": -0.41756955852695543, "scale": 0.003538725072262334, "dtype": "uint8"}}, {"name": "LAYER_142/moving_mean", "shape": [960], "dtype": "float32", "quantization": {"min": -0.10572488939060884, "scale": 0.0005684133838204776, "dtype": "uint8"}}, {"name": "LAYER_142/moving_variance", "shape": [960], "dtype": "float32", "quantization": {"min": 1.751761821537634e-12, "scale": 1.9168512267951945e-05, "dtype": "uint8"}}, {"name": "LAYER_144/kernel", "shape": [1, 1, 960, 320], "dtype": "float32", "quantization": {"min": -0.22676922258208781, "scale": 0.0016432552361020855, "dtype": "uint8"}}, {"name": "LAYER_145/gamma", "shape": [320], "dtype": "float32", "quantization": {"min": 0.13930447399616241, "scale": 0.0009420263416626874, "dtype": "uint8"}}, {"name": "LAYER_145/beta", "shape": [320], "dtype": "float32", "quantization": {"min": -5.8584164836408e-07, "scale": 4.6129263650714965e-09, "dtype": "uint8"}}, {"name": "LAYER_145/moving_mean", "shape": [320], "dtype": "float32", "quantization": {"min": -0.5013401957119212, "scale": 0.004248645726372214, "dtype": "uint8"}}, {"name": "LAYER_145/moving_variance", "shape": [320], "dtype": "float32", "quantization": {"min": 0.04735826700925827, "scale": 0.001357026573489694, "dtype": "uint8"}}, {"name": "LAYER_146/kernel", "shape": [1, 1, 320, 1280], "dtype": "float32", "quantization": {"min": -0.15921264349245556, "scale": 0.001243848777284809, "dtype": "uint8"}}, {"name": "LAYER_147/gamma", "shape": [1280], "dtype": "float32", "quantization": {"min": 1.4142601490020752, "scale": 0.0013972876118678672, "dtype": "uint8"}}, {"name": "LAYER_147/beta", "shape": [1280], "dtype": "float32", "quantization": {"min": -0.29391446306424984, "scale": 0.0014478544978534474, "dtype": "uint8"}}, {"name": "LAYER_147/moving_mean", "shape": [1280], "dtype": "float32", "quantization": {"min": -4.901839548331147e-07, "scale": 2.426653241748093e-09, "dtype": "uint8"}}, {"name": "LAYER_147/moving_variance", "shape": [1280], "dtype": "float32", "quantization": {"min": 0.030291233211755753, "scale": 0.0008430494835563734, "dtype": "uint8"}}, {"name": "LAYER_15/gamma", "shape": [24], "dtype": "float32", "quantization": {"min": 0.34293389320373535, "scale": 0.002244982298682718, "dtype": "uint8"}}, {"name": "LAYER_15/beta", "shape": [24], "dtype": "float32", "quantization": {"min": -4.260358916023203e-07, "scale": 6.265233700034122e-09, "dtype": "uint8"}}, {"name": "LAYER_15/moving_mean", "shape": [24], "dtype": "float32", "quantization": {"min": -1.525735754592746, "scale": 0.010522315548915489, "dtype": "uint8"}}, {"name": "LAYER_15/moving_variance", "shape": [24], "dtype": "float32", "quantization": {"min": 0.18140877783298492, "scale": 0.005891174837654712, "dtype": "uint8"}}, {"name": "LAYER_152/kernel", "shape": [1280, 10], "dtype": "float32", "quantization": {"min": -0.2615427577612447, "scale": 0.0019664869004604865, "dtype": "uint8"}}, {"name": "LAYER_152/bias", "shape": [10], "dtype": "float32", "quantization": {"min": -0.29850859431659477, "scale": 0.002244425521177404, "dtype": "uint8"}}, {"name": "LAYER_16/kernel", "shape": [1, 1, 24, 144], "dtype": "float32", "quantization": {"min": -0.5736543734868367, "scale": 0.004313190778096517, "dtype": "uint8"}}, {"name": "LAYER_17/gamma", "shape": [144], "dtype": "float32", "quantization": {"min": 0.03599630668759346, "scale": 0.0021743104007898592, "dtype": "uint8"}}, {"name": "LAYER_17/beta", "shape": [144], "dtype": "float32", "quantization": {"min": -0.4248173671610215, "scale": 0.005589702199487125, "dtype": "uint8"}}, {"name": "LAYER_17/moving_mean", "shape": [144], "dtype": "float32", "quantization": {"min": -6.235142309913713e-07, "scale": 5.195951924928094e-09, "dtype": "uint8"}}, {"name": "LAYER_17/moving_variance", "shape": [144], "dtype": "float32", "quantization": {"min": 0.029955483973026276, "scale": 0.004475354300994499, "dtype": "uint8"}}, {"name": "LAYER_19/depthwise_kernel", "shape": [3, 3, 144, 1], "dtype": "float32", "quantization": {"min": -1.068887294507494, "scale": 0.007634909246482101, "dtype": "uint8"}}, {"name": "LAYER_20/gamma", "shape": [144], "dtype": "float32", "quantization": {"min": -0.043834951300831405, "scale": 0.002087378633372924, "dtype": "uint8"}}, {"name": "LAYER_20/beta", "shape": [144], "dtype": "float32", "quantization": {"min": -0.27032462475346586, "scale": 0.004223822261772904, "dtype": "uint8"}}, {"name": "LAYER_20/moving_mean", "shape": [144], "dtype": "float32", "quantization": {"min": -0.7895472819606464, "scale": 0.003478181858857473, "dtype": "uint8"}}, {"name": "LAYER_20/moving_variance", "shape": [144], "dtype": "float32", "quantization": {"min": 1.6475107389446464e-10, "scale": 0.00012002685133988615, "dtype": "uint8"}}, {"name": "LAYER_22/kernel", "shape": [1, 1, 144, 24], "dtype": "float32", "quantization": {"min": -0.4502001023760029, "scale": 0.0038810353653103698, "dtype": "uint8"}}, {"name": "LAYER_23/gamma", "shape": [24], "dtype": "float32", "quantization": {"min": 0.3053854703903198, "scale": 0.0018626972740771724, "dtype": "uint8"}}, {"name": "LAYER_23/beta", "shape": [24], "dtype": "float32", "quantization": {"min": -3.255555260666905e-07, "scale": 2.308904440189294e-09, "dtype": "uint8"}}, {"name": "LAYER_23/moving_mean", "shape": [24], "dtype": "float32", "quantization": {"min": -0.5946595360251035, "scale": 0.006194370166928161, "dtype": "uint8"}}, {"name": "LAYER_23/moving_variance", "shape": [24], "dtype": "float32", "quantization": {"min": 0.0751446783542633, "scale": 0.0007862211442461201, "dtype": "uint8"}}, {"name": "LAYER_25/kernel", "shape": [1, 1, 24, 144], "dtype": "float32", "quantization": {"min": -0.7453002649195053, "scale": 0.006210835540995878, "dtype": "uint8"}}, {"name": "LAYER_26/gamma", "shape": [144], "dtype": "float32", "quantization": {"min": 0.0680302157998085, "scale": 0.0019080875843178991, "dtype": "uint8"}}, {"name": "LAYER_26/beta", "shape": [144], "dtype": "float32", "quantization": {"min": -0.402230027142693, "scale": 0.003142422087052289, "dtype": "uint8"}}, {"name": "LAYER_26/moving_mean", "shape": [144], "dtype": "float32", "quantization": {"min": -9.829845887853642e-07, "scale": 7.801464990360033e-09, "dtype": "uint8"}}, {"name": "LAYER_26/moving_variance", "shape": [144], "dtype": "float32", "quantization": {"min": 0.12675631046295166, "scale": 0.007765492738461962, "dtype": "uint8"}}, {"name": "LAYER_28/depthwise_kernel", "shape": [3, 3, 144, 1], "dtype": "float32", "quantization": {"min": -0.3240578607016919, "scale": 0.002592462885613535, "dtype": "uint8"}}, {"name": "LAYER_29/gamma", "shape": [144], "dtype": "float32", "quantization": {"min": 0.0482989177107811, "scale": 0.0026285869525928124, "dtype": "uint8"}}, {"name": "LAYER_29/beta", "shape": [144], "dtype": "float32", "quantization": {"min": -0.23239598601472147, "scale": 0.0040068273450814046, "dtype": "uint8"}}, {"name": "LAYER_29/moving_mean", "shape": [144], "dtype": "float32", "quantization": {"min": -0.43398224010187036, "scale": 0.003122174389222089, "dtype": "uint8"}}, {"name": "LAYER_29/moving_variance", "shape": [144], "dtype": "float32", "quantization": {"min": 0.00031997181940823793, "scale": 0.0003536577934545337, "dtype": "uint8"}}, {"name": "LAYER_3/depthwise_kernel", "shape": [3, 3, 32, 1], "dtype": "float32", "quantization": {"min": -2.5614856271182793, "scale": 0.021345713559318993, "dtype": "uint8"}}, {"name": "LAYER_31/kernel", "shape": [1, 1, 144, 32], "dtype": "float32", "quantization": {"min": -0.5662057750365314, "scale": 0.00539243595272887, "dtype": "uint8"}}, {"name": "LAYER_32/gamma", "shape": [32], "dtype": "float32", "quantization": {"min": 0.4106309115886688, "scale": 0.0015103140298058004, "dtype": "uint8"}}, {"name": "LAYER_32/beta", "shape": [32], "dtype": "float32", "quantization": {"min": -3.478249410880951e-07, "scale": 2.449471416113346e-09, "dtype": "uint8"}}, {"name": "LAYER_32/moving_mean", "shape": [32], "dtype": "float32", "quantization": {"min": -1.1793520226198084, "scale": 0.011021981519811293, "dtype": "uint8"}}, {"name": "LAYER_32/moving_variance", "shape": [32], "dtype": "float32", "quantization": {"min": 0.17013196647167206, "scale": 0.0026611653613109213, "dtype": "uint8"}}, {"name": "LAYER_33/kernel", "shape": [1, 1, 32, 192], "dtype": "float32", "quantization": {"min": -0.5202277758542229, "scale": 0.004603785627028521, "dtype": "uint8"}}, {"name": "LAYER_34/gamma", "shape": [192], "dtype": "float32", "quantization": {"min": -0.09666958246745316, "scale": 0.00166671693909402, "dtype": "uint8"}}, {"name": "LAYER_34/beta", "shape": [192], "dtype": "float32", "quantization": {"min": -0.15913967244765337, "scale": 0.00221027322843963, "dtype": "uint8"}}, {"name": "LAYER_34/moving_mean", "shape": [192], "dtype": "float32", "quantization": {"min": -2.276838939990864e-07, "scale": 2.347256639165839e-09, "dtype": "uint8"}}, {"name": "LAYER_34/moving_variance", "shape": [192], "dtype": "float32", "quantization": {"min": 0.02443060278892517, "scale": 0.004859765955046111, "dtype": "uint8"}}, {"name": "LAYER_36/depthwise_kernel", "shape": [3, 3, 192, 1], "dtype": "float32", "quantization": {"min": -0.765092311185949, "scale": 0.0057961538726208255, "dtype": "uint8"}}, {"name": "LAYER_37/gamma", "shape": [192], "dtype": "float32", "quantization": {"min": 0.016443578526377678, "scale": 0.0018665029795146455, "dtype": "uint8"}}, {"name": "LAYER_37/beta", "shape": [192], "dtype": "float32", "quantization": {"min": -0.5120886709175858, "scale": 0.004000692741543639, "dtype": "uint8"}}, {"name": "LAYER_37/moving_mean", "shape": [192], "dtype": "float32", "quantization": {"min": -0.12958254299911798, "scale": 0.0010981571440603218, "dtype": "uint8"}}, {"name": "LAYER_37/moving_variance", "shape": [192], "dtype": "float32", "quantization": {"min": 1.2353477903847459e-15, "scale": 6.780612702462703e-05, "dtype": "uint8"}}, {"name": "LAYER_39/kernel", "shape": [1, 1, 192, 32], "dtype": "float32", "quantization": {"min": -0.4811712575893776, "scale": 0.003124488685645309, "dtype": "uint8"}}, {"name": "LAYER_4/gamma", "shape": [32], "dtype": "float32", "quantization": {"min": 0.0049445065669715405, "scale": 0.004877917192803294, "dtype": "uint8"}}, {"name": "LAYER_4/beta", "shape": [32], "dtype": "float32", "quantization": {"min": -0.3914332153750401, "scale": 0.00850941772554435, "dtype": "uint8"}}, {"name": "LAYER_4/moving_mean", "shape": [32], "dtype": "float32", "quantization": {"min": -0.9856850380991019, "scale": 0.006238512899361405, "dtype": "uint8"}}, {"name": "LAYER_4/moving_variance", "shape": [32], "dtype": "float32", "quantization": {"min": 5.605193857299268e-45, "scale": 0.0013640893440620572, "dtype": "uint8"}}, {"name": "LAYER_40/gamma", "shape": [32], "dtype": "float32", "quantization": {"min": 0.14350415766239166, "scale": 0.0021400549248153087, "dtype": "uint8"}}, {"name": "LAYER_40/beta", "shape": [32], "dtype": "float32", "quantization": {"min": -2.5453643522322477e-07, "scale": 1.885455075727591e-09, "dtype": "uint8"}}, {"name": "LAYER_40/moving_mean", "shape": [32], "dtype": "float32", "quantization": {"min": -0.4404755900887882, "scale": 0.0031918521020926683, "dtype": "uint8"}}, {"name": "LAYER_40/moving_variance", "shape": [32], "dtype": "float32", "quantization": {"min": 0.027549516409635544, "scale": 0.0004173302329054066, "dtype": "uint8"}}, {"name": "LAYER_42/kernel", "shape": [1, 1, 32, 192], "dtype": "float32", "quantization": {"min": -0.4109135491006515, "scale": 0.0031853763496174532, "dtype": "uint8"}}, {"name": "LAYER_43/gamma", "shape": [192], "dtype": "float32", "quantization": {"min": -0.07950269661697687, "scale": 0.0012422296346402636, "dtype": "uint8"}}, {"name": "LAYER_43/beta", "shape": [192], "dtype": "float32", "quantization": {"min": -0.19586118179209092, "scale": 0.0021762353532454545, "dtype": "uint8"}}, {"name": "LAYER_43/moving_mean", "shape": [192], "dtype": "float32", "quantization": {"min": -3.234253854851191e-07, "scale": 2.7643195340608468e-09, "dtype": "uint8"}}, {"name": "LAYER_43/moving_variance", "shape": [192], "dtype": "float32", "quantization": {"min": 0.0027407670859247446, "scale": 0.002384681458238001, "dtype": "uint8"}}, {"name": "LAYER_45/depthwise_kernel", "shape": [3, 3, 192, 1], "dtype": "float32", "quantization": {"min": -0.5795283817777447, "scale": 0.004911257472692752, "dtype": "uint8"}}, {"name": "LAYER_46/gamma", "shape": [192], "dtype": "float32", "quantization": {"min": 0.010718810372054577, "scale": 0.0017235176710813653, "dtype": "uint8"}}, {"name": "LAYER_46/beta", "shape": [192], "dtype": "float32", "quantization": {"min": -0.7019679441171534, "scale": 0.004908866742077996, "dtype": "uint8"}}, {"name": "LAYER_46/moving_mean", "shape": [192], "dtype": "float32", "quantization": {"min": -0.20010614184772266, "scale": 0.0011911079871888253, "dtype": "uint8"}}, {"name": "LAYER_46/moving_variance", "shape": [192], "dtype": "float32", "quantization": {"min": 1.993854359706184e-15, "scale": 4.0946703623315066e-05, "dtype": "uint8"}}, {"name": "LAYER_48/kernel", "shape": [1, 1, 192, 32], "dtype": "float32", "quantization": {"min": -0.35102270771475397, "scale": 0.0028308282880222095, "dtype": "uint8"}}, {"name": "LAYER_49/gamma", "shape": [32], "dtype": "float32", "quantization": {"min": 0.14798502624034882, "scale": 0.0019495434036441877, "dtype": "uint8"}}, {"name": "LAYER_49/beta", "shape": [32], "dtype": "float32", "quantization": {"min": -2.2265371893916058e-07, "scale": 1.8554476578263383e-09, "dtype": "uint8"}}, {"name": "LAYER_49/moving_mean", "shape": [32], "dtype": "float32", "quantization": {"min": -0.30837208242977365, "scale": 0.0025070901010550706, "dtype": "uint8"}}, {"name": "LAYER_49/moving_variance", "shape": [32], "dtype": "float32", "quantization": {"min": 0.013591851107776165, "scale": 0.00018355296011648926, "dtype": "uint8"}}, {"name": "LAYER_51/kernel", "shape": [1, 1, 32, 192], "dtype": "float32", "quantization": {"min": -0.5452741202186137, "scale": 0.004397371937246884, "dtype": "uint8"}}, {"name": "LAYER_52/gamma", "shape": [192], "dtype": "float32", "quantization": {"min": 0.04808730632066727, "scale": 0.001164039297431123, "dtype": "uint8"}}, {"name": "LAYER_52/beta", "shape": [192], "dtype": "float32", "quantization": {"min": -0.41124040168874404, "scale": 0.002875807004816392, "dtype": "uint8"}}, {"name": "LAYER_52/moving_mean", "shape": [192], "dtype": "float32", "quantization": {"min": -6.577617000402824e-07, "scale": 5.527409244035987e-09, "dtype": "uint8"}}, {"name": "LAYER_52/moving_variance", "shape": [192], "dtype": "float32", "quantization": {"min": 0.16370825469493866, "scale": 0.00969215637328578, "dtype": "uint8"}}, {"name": "LAYER_54/depthwise_kernel", "shape": [3, 3, 192, 1], "dtype": "float32", "quantization": {"min": -0.3423430323600769, "scale": 0.002717008193333944, "dtype": "uint8"}}, {"name": "LAYER_55/gamma", "shape": [192], "dtype": "float32", "quantization": {"min": 0.04718032106757164, "scale": 0.001997934033473333, "dtype": "uint8"}}, {"name": "LAYER_55/beta", "shape": [192], "dtype": "float32", "quantization": {"min": -0.08797472060895434, "scale": 0.003141954307462655, "dtype": "uint8"}}, {"name": "LAYER_55/moving_mean", "shape": [192], "dtype": "float32", "quantization": {"min": -0.3618784324795592, "scale": 0.002495713327445236, "dtype": "uint8"}}, {"name": "LAYER_55/moving_variance", "shape": [192], "dtype": "float32", "quantization": {"min": 1.385344855324433e-12, "scale": 0.0002267120077275196, "dtype": "uint8"}}, {"name": "LAYER_57/kernel", "shape": [1, 1, 192, 64], "dtype": "float32", "quantization": {"min": -0.5409774471731748, "scale": 0.003920126428791121, "dtype": "uint8"}}, {"name": "LAYER_58/gamma", "shape": [64], "dtype": "float32", "quantization": {"min": 0.30697768926620483, "scale": 0.002094147719588934, "dtype": "uint8"}}, {"name": "LAYER_58/beta", "shape": [64], "dtype": "float32", "quantization": {"min": -2.3323186473375888e-07, "scale": 1.8079989514244874e-09, "dtype": "uint8"}}, {"name": "LAYER_58/moving_mean", "shape": [64], "dtype": "float32", "quantization": {"min": -1.2632532774233352, "scale": 0.008896149841009402, "dtype": "uint8"}}, {"name": "LAYER_58/moving_variance", "shape": [64], "dtype": "float32", "quantization": {"min": 0.11866394430398941, "scale": 0.002586648364861806, "dtype": "uint8"}}, {"name": "LAYER_59/kernel", "shape": [1, 1, 64, 384], "dtype": "float32", "quantization": {"min": -0.40891892489264997, "scale": 0.0027817613938275506, "dtype": "uint8"}}, {"name": "LAYER_6/kernel", "shape": [1, 1, 32, 16], "dtype": "float32", "quantization": {"min": -1.4966319981743306, "scale": 0.009593794860091863, "dtype": "uint8"}}, {"name": "LAYER_60/gamma", "shape": [384], "dtype": "float32", "quantization": {"min": -0.1097310367752524, "scale": 0.001443829431253321, "dtype": "uint8"}}, {"name": "LAYER_60/beta", "shape": [384], "dtype": "float32", "quantization": {"min": -0.2488998586056279, "scale": 0.002894184402391022, "dtype": "uint8"}}, {"name": "LAYER_60/moving_mean", "shape": [384], "dtype": "float32", "quantization": {"min": -2.871006320977661e-07, "scale": 2.111034059542398e-09, "dtype": "uint8"}}, {"name": "LAYER_60/moving_variance", "shape": [384], "dtype": "float32", "quantization": {"min": 0.01873021200299263, "scale": 0.0023265261714364967, "dtype": "uint8"}}, {"name": "LAYER_62/depthwise_kernel", "shape": [3, 3, 384, 1], "dtype": "float32", "quantization": {"min": -0.5289453583605149, "scale": 0.0043003687671586575, "dtype": "uint8"}}, {"name": "LAYER_63/gamma", "shape": [384], "dtype": "float32", "quantization": {"min": 0.013817970640957355, "scale": 0.0016312070738743333, "dtype": "uint8"}}, {"name": "LAYER_63/beta", "shape": [384], "dtype": "float32", "quantization": {"min": -0.53078831819927, "scale": 0.003424440762575935, "dtype": "uint8"}}, {"name": "LAYER_63/moving_mean", "shape": [384], "dtype": "float32", "quantization": {"min": -0.1704716212609235, "scale": 0.000916514092800664, "dtype": "uint8"}}, {"name": "LAYER_63/moving_variance", "shape": [384], "dtype": "float32", "quantization": {"min": 8.064954953868053e-13, "scale": 8.482425382008021e-05, "dtype": "uint8"}}, {"name": "LAYER_65/kernel", "shape": [1, 1, 384, 64], "dtype": "float32", "quantization": {"min": -0.2952183844996433, "scale": 0.0024198228237675683, "dtype": "uint8"}}, {"name": "LAYER_66/gamma", "shape": [64], "dtype": "float32", "quantization": {"min": 0.19266417622566223, "scale": 0.00251046617825826, "dtype": "uint8"}}, {"name": "LAYER_66/beta", "shape": [64], "dtype": "float32", "quantization": {"min": -2.1749934808658686e-07, "scale": 1.4309167637275452e-09, "dtype": "uint8"}}, {"name": "LAYER_66/moving_mean", "shape": [64], "dtype": "float32", "quantization": {"min": -0.5408218869975968, "scale": 0.004258440055099188, "dtype": "uint8"}}, {"name": "LAYER_66/moving_variance", "shape": [64], "dtype": "float32", "quantization": {"min": 0.02637733891606331, "scale": 0.00046555673082669576, "dtype": "uint8"}}, {"name": "LAYER_68/kernel", "shape": [1, 1, 64, 384], "dtype": "float32", "quantization": {"min": -0.2982796309041042, "scale": 0.002405480894387937, "dtype": "uint8"}}, {"name": "LAYER_69/gamma", "shape": [384], "dtype": "float32", "quantization": {"min": -0.09967368548991633, "scale": 0.0014239097927130904, "dtype": "uint8"}}, {"name": "LAYER_69/beta", "shape": [384], "dtype": "float32", "quantization": {"min": -0.1691968591774211, "scale": 0.001596196784692652, "dtype": "uint8"}}, {"name": "LAYER_69/moving_mean", "shape": [384], "dtype": "float32", "quantization": {"min": -4.962909299904947e-07, "scale": 3.731510751808231e-09, "dtype": "uint8"}}, {"name": "LAYER_69/moving_variance", "shape": [384], "dtype": "float32", "quantization": {"min": 0.0010507524712011218, "scale": 0.004151703165752777, "dtype": "uint8"}}, {"name": "LAYER_7/gamma", "shape": [16], "dtype": "float32", "quantization": {"min": 0.35491713881492615, "scale": 0.0020352215159173104, "dtype": "uint8"}}, {"name": "LAYER_7/beta", "shape": [16], "dtype": "float32", "quantization": {"min": -1.6883063822473667e-06, "scale": 1.2146089080916307e-08, "dtype": "uint8"}}, {"name": "LAYER_7/moving_mean", "shape": [16], "dtype": "float32", "quantization": {"min": -2.6067559186150047, "scale": 0.018889535642137713, "dtype": "uint8"}}, {"name": "LAYER_7/moving_variance", "shape": [16], "dtype": "float32", "quantization": {"min": 0.1282101571559906, "scale": 0.004120578602248547, "dtype": "uint8"}}, {"name": "LAYER_71/depthwise_kernel", "shape": [3, 3, 384, 1], "dtype": "float32", "quantization": {"min": -0.38099780970928715, "scale": 0.0038099780970928714, "dtype": "uint8"}}, {"name": "LAYER_72/gamma", "shape": [384], "dtype": "float32", "quantization": {"min": 0.0028047459200024605, "scale": 0.0017220959176912026, "dtype": "uint8"}}, {"name": "LAYER_72/beta", "shape": [384], "dtype": "float32", "quantization": {"min": -0.3277690663057215, "scale": 0.002875167248295803, "dtype": "uint8"}}, {"name": "LAYER_72/moving_mean", "shape": [384], "dtype": "float32", "quantization": {"min": -0.11159364879131317, "scale": 0.0006488002836704254, "dtype": "uint8"}}, {"name": "LAYER_72/moving_variance", "shape": [384], "dtype": "float32", "quantization": {"min": 5.605193857299268e-45, "scale": 4.7202649361947006e-05, "dtype": "uint8"}}, {"name": "LAYER_74/kernel", "shape": [1, 1, 384, 64], "dtype": "float32", "quantization": {"min": -0.28915932832979685, "scale": 0.002224302525613822, "dtype": "uint8"}}, {"name": "LAYER_75/gamma", "shape": [64], "dtype": "float32", "quantization": {"min": 0.10605911165475845, "scale": 0.0013528372435008778, "dtype": "uint8"}}, {"name": "LAYER_75/beta", "shape": [64], "dtype": "float32", "quantization": {"min": -1.541163273339621e-07, "scale": 1.4403395077940385e-09, "dtype": "uint8"}}, {"name": "LAYER_75/moving_mean", "shape": [64], "dtype": "float32", "quantization": {"min": -0.3225907991914188, "scale": 0.0022878780084497788, "dtype": "uint8"}}, {"name": "LAYER_75/moving_variance", "shape": [64], "dtype": "float32", "quantization": {"min": 0.014645908027887344, "scale": 0.0001343811989999285, "dtype": "uint8"}}, {"name": "LAYER_77/kernel", "shape": [1, 1, 64, 384], "dtype": "float32", "quantization": {"min": -0.28963597615559894, "scale": 0.0022627810637156167, "dtype": "uint8"}}, {"name": "LAYER_78/gamma", "shape": [384], "dtype": "float32", "quantization": {"min": 0.0009924090700224042, "scale": 0.0017448356662712553, "dtype": "uint8"}}, {"name": "LAYER_78/beta", "shape": [384], "dtype": "float32", "quantization": {"min": -0.2477207357976951, "scale": 0.0019505569747850008, "dtype": "uint8"}}, {"name": "LAYER_78/moving_mean", "shape": [384], "dtype": "float32", "quantization": {"min": -6.434949321320506e-07, "scale": 4.663006754580077e-09, "dtype": "uint8"}}, {"name": "LAYER_78/moving_variance", "shape": [384], "dtype": "float32", "quantization": {"min": 0.0007109865546226501, "scale": 0.0033403094200526967, "dtype": "uint8"}}, {"name": "LAYER_8/kernel", "shape": [1, 1, 16, 96], "dtype": "float32", "quantization": {"min": -0.8814446393181296, "scale": 0.006341328340418198, "dtype": "uint8"}}, {"name": "LAYER_80/depthwise_kernel", "shape": [3, 3, 384, 1], "dtype": "float32", "quantization": {"min": -0.6424779832363129, "scale": 0.0041992025048125025, "dtype": "uint8"}}, {"name": "LAYER_81/gamma", "shape": [384], "dtype": "float32", "quantization": {"min": 0.015678131952881813, "scale": 0.0013906072386923958, "dtype": "uint8"}}, {"name": "LAYER_81/beta", "shape": [384], "dtype": "float32", "quantization": {"min": -0.45433343391792447, "scale": 0.0032452388136994604, "dtype": "uint8"}}, {"name": "LAYER_81/moving_mean", "shape": [384], "dtype": "float32", "quantization": {"min": -0.13518536927945474, "scale": 0.0007637591484714957, "dtype": "uint8"}}, {"name": "LAYER_81/moving_variance", "shape": [384], "dtype": "float32", "quantization": {"min": 5.605193857299268e-45, "scale": 4.1986242228863284e-05, "dtype": "uint8"}}, {"name": "LAYER_83/kernel", "shape": [1, 1, 384, 64], "dtype": "float32", "quantization": {"min": -0.35942951277190566, "scale": 0.002808043068530513, "dtype": "uint8"}}, {"name": "LAYER_84/gamma", "shape": [64], "dtype": "float32", "quantization": {"min": 0.16569490730762482, "scale": 0.0010720882345648373, "dtype": "uint8"}}, {"name": "LAYER_84/beta", "shape": [64], "dtype": "float32", "quantization": {"min": -2.132676043259505e-07, "scale": 1.431326203529869e-09, "dtype": "uint8"}}, {"name": "LAYER_84/moving_mean", "shape": [64], "dtype": "float32", "quantization": {"min": -0.3031676346180486, "scale": 0.0027813544460371428, "dtype": "uint8"}}, {"name": "LAYER_84/moving_variance", "shape": [64], "dtype": "float32", "quantization": {"min": 0.015773089602589607, "scale": 0.00011846321616687027, "dtype": "uint8"}}, {"name": "LAYER_86/kernel", "shape": [1, 1, 64, 384], "dtype": "float32", "quantization": {"min": -0.44097717462801467, "scale": 0.003556267537322699, "dtype": "uint8"}}, {"name": "LAYER_87/gamma", "shape": [384], "dtype": "float32", "quantization": {"min": 0.006263929884880781, "scale": 0.001012368575103727, "dtype": "uint8"}}, {"name": "LAYER_87/beta", "shape": [384], "dtype": "float32", "quantization": {"min": -0.23299129009246827, "scale": 0.002284228334239885, "dtype": "uint8"}}, {"name": "LAYER_87/moving_mean", "shape": [384], "dtype": "float32", "quantization": {"min": -8.694777574526277e-07, "scale": 6.123082798962167e-09, "dtype": "uint8"}}, {"name": "LAYER_87/moving_variance", "shape": [384], "dtype": "float32", "quantization": {"min": 0.11490193754434586, "scale": 0.0058980220380951374, "dtype": "uint8"}}, {"name": "LAYER_89/depthwise_kernel", "shape": [3, 3, 384, 1], "dtype": "float32", "quantization": {"min": -0.5633321570415122, "scale": 0.004617476697061576, "dtype": "uint8"}}, {"name": "LAYER_9/gamma", "shape": [96], "dtype": "float32", "quantization": {"min": -0.09841923912366231, "scale": 0.002811978260676066, "dtype": "uint8"}}, {"name": "LAYER_9/beta", "shape": [96], "dtype": "float32", "quantization": {"min": -0.5746667747404061, "scale": 0.005272172245324827, "dtype": "uint8"}}, {"name": "LAYER_9/moving_mean", "shape": [96], "dtype": "float32", "quantization": {"min": -1.7745521758757497e-06, "scale": 1.27665624163723e-08, "dtype": "uint8"}}, {"name": "LAYER_9/moving_variance", "shape": [96], "dtype": "float32", "quantization": {"min": 0.03461557254195213, "scale": 0.004314961401270885, "dtype": "uint8"}}, {"name": "LAYER_90/gamma", "shape": [384], "dtype": "float32", "quantization": {"min": 0.03156077489256859, "scale": 0.0021142557701643774, "dtype": "uint8"}}, {"name": "LAYER_90/beta", "shape": [384], "dtype": "float32", "quantization": {"min": -0.2734806584376915, "scale": 0.0031077347549737667, "dtype": "uint8"}}, {"name": "LAYER_90/moving_mean", "shape": [384], "dtype": "float32", "quantization": {"min": -0.3488276893017339, "scale": 0.002250501221301509, "dtype": "uint8"}}, {"name": "LAYER_90/moving_variance", "shape": [384], "dtype": "float32", "quantization": {"min": 5.605193857299268e-45, "scale": 0.00013174378112250682, "dtype": "uint8"}}, {"name": "LAYER_92/kernel", "shape": [1, 1, 384, 96], "dtype": "float32", "quantization": {"min": -0.36599284761092243, "scale": 0.0033888226630640964, "dtype": "uint8"}}, {"name": "LAYER_93/gamma", "shape": [96], "dtype": "float32", "quantization": {"min": 0.29466351866722107, "scale": 0.001160201488756666, "dtype": "uint8"}}, {"name": "LAYER_93/beta", "shape": [96], "dtype": "float32", "quantization": {"min": -2.969305569422431e-07, "scale": 2.7493570087244733e-09, "dtype": "uint8"}}, {"name": "LAYER_93/moving_mean", "shape": [96], "dtype": "float32", "quantization": {"min": -0.9182233564993915, "scale": 0.0063325748724095965, "dtype": "uint8"}}, {"name": "LAYER_93/moving_variance", "shape": [96], "dtype": "float32", "quantization": {"min": 0.08747357130050659, "scale": 0.0015184397790946212, "dtype": "uint8"}}, {"name": "LAYER_94/kernel", "shape": [1, 1, 96, 576], "dtype": "float32", "quantization": {"min": -0.2955999028448965, "scale": 0.002762615914438285, "dtype": "uint8"}}, {"name": "LAYER_95/gamma", "shape": [576], "dtype": "float32", "quantization": {"min": -0.14523731119492475, "scale": 0.0015128886582804662, "dtype": "uint8"}}, {"name": "LAYER_95/beta", "shape": [576], "dtype": "float32", "quantization": {"min": -0.7628702183564504, "scale": 0.004079519884259093, "dtype": "uint8"}}, {"name": "LAYER_95/moving_mean", "shape": [576], "dtype": "float32", "quantization": {"min": -2.74721580072925e-07, "scale": 2.0349746672068518e-09, "dtype": "uint8"}}, {"name": "LAYER_95/moving_variance", "shape": [576], "dtype": "float32", "quantization": {"min": 0.0006210627034306526, "scale": 0.0014275791123509406, "dtype": "uint8"}}, {"name": "LAYER_97/depthwise_kernel", "shape": [3, 3, 576, 1], "dtype": "float32", "quantization": {"min": -0.44414954091988357, "scale": 0.003965620901070389, "dtype": "uint8"}}, {"name": "LAYER_98/gamma", "shape": [576], "dtype": "float32", "quantization": {"min": 0.006898506078869104, "scale": 0.0018152839467659885, "dtype": "uint8"}}, {"name": "LAYER_98/beta", "shape": [576], "dtype": "float32", "quantization": {"min": -0.5088546994854422, "scale": 0.003769294070262535, "dtype": "uint8"}}, {"name": "LAYER_98/moving_mean", "shape": [576], "dtype": "float32", "quantization": {"min": -0.19334280023387834, "scale": 0.0015467424018710267, "dtype": "uint8"}}, {"name": "LAYER_98/moving_variance", "shape": [576], "dtype": "float32", "quantization": {"min": 5.605193857299268e-45, "scale": 7.244321499385086e-05, "dtype": "uint8"}}]}]}