{"format": "layers-model", "generatedBy": "keras v2.2.4", "convertedBy": "TensorFlow.js Converter v1.2.8", "modelTopology": {"keras_version": "2.2.4", "backend": "tensorflow", "model_config": {"class_name": "Model", "config": {"name": "model_1", "layers": [{"name": "input_0", "class_name": "InputLayer", "config": {"batch_input_shape": [null, 3, 224, 224], "dtype": "float32", "sparse": false, "name": "input_0"}, "inbound_nodes": []}, {"name": "LAYER_0_pad", "class_name": "ZeroPadding2D", "config": {"name": "LAYER_0_pad", "trainable": true, "padding": [[1, 1], [1, 1]], "data_format": "channels_first"}, "inbound_nodes": [[["input_0", 0, 0, {}]]]}, {"name": "LAYER_0", "class_name": "Conv2D", "config": {"name": "LAYER_0", "trainable": true, "filters": 32, "kernel_size": [3, 3], "strides": [2, 2], "padding": "valid", "data_format": "channels_first", "dilation_rate": [1, 1], "activation": "linear", "use_bias": false, "kernel_initializer": {"class_name": "Zeros", "config": {}}, "bias_initializer": {"class_name": "Zeros", "config": {}}, "kernel_regularizer": null, "bias_regularizer": null, "activity_regularizer": null, "kernel_constraint": null, "bias_constraint": null}, "inbound_nodes": [[["LAYER_0_pad", 0, 0, {}]]]}, {"name": "LAYER_1", "class_name": "BatchNormalization", "config": {"name": "LAYER_1", "trainable": true, "axis": 1, "momentum": 0.8999999761581421, "epsilon": 9.999999747378752e-06, "center": true, "scale": true, "beta_initializer": {"class_name": "Zeros", "config": {}}, "gamma_initializer": {"class_name": "Ones", "config": {}}, "moving_mean_initializer": {"class_name": "Zeros", "config": {}}, "moving_variance_initializer": {"class_name": "Ones", "config": {}}, "beta_regularizer": null, "gamma_regularizer": null, "beta_constraint": null, "gamma_constraint": null}, "inbound_nodes": [[["LAYER_0", 0, 0, {}]]]}, {"name": "LAYER_2", "class_name": "ReLU", "config": {"name": "LAYER_2", "trainable": true, "max_value": 6.0, "negative_slope": 0.0, "threshold": 0.0}, "inbound_nodes": [[["LAYER_1", 0, 0, {}]]]}, {"name": "LAYER_3_pad", "class_name": "ZeroPadding2D", "config": {"name": "LAYER_3_pad", "trainable": true, "padding": [[1, 1], [1, 1]], "data_format": "channels_first"}, "inbound_nodes": [[["LAYER_2", 0, 0, {}]]]}, {"name": "LAYER_3", "class_name": "DepthwiseConv2D", "config": {"name": "LAYER_3", "trainable": true, "kernel_size": [3, 3], "strides": [1, 1], "padding": "valid", "data_format": "channels_first", "dilation_rate": [1, 1], "activation": "linear", "use_bias": false, "bias_initializer": {"class_name": "Zeros", "config": {}}, "bias_regularizer": null, "activity_regularizer": null, "bias_constraint": null, "depth_multiplier": 1, "depthwise_initializer": {"class_name": "VarianceScaling", "config": {"scale": 1.0, "mode": "fan_avg", "distribution": "uniform", "seed": null}}, "depthwise_regularizer": null, "depthwise_constraint": null}, "inbound_nodes": [[["LAYER_3_pad", 0, 0, {}]]]}, {"name": "LAYER_4", "class_name": "BatchNormalization", "config": {"name": "LAYER_4", "trainable": true, "axis": 1, "momentum": 0.8999999761581421, "epsilon": 9.999999747378752e-06, "center": true, "scale": true, "beta_initializer": {"class_name": "Zeros", "config": {}}, "gamma_initializer": {"class_name": "Ones", "config": {}}, "moving_mean_initializer": {"class_name": "Zeros", "config": {}}, "moving_variance_initializer": {"class_name": "Ones", "config": {}}, "beta_regularizer": null, "gamma_regularizer": null, "beta_constraint": null, "gamma_constraint": null}, "inbound_nodes": [[["LAYER_3", 0, 0, {}]]]}, {"name": "LAYER_5", "class_name": "ReLU", "config": {"name": "LAYER_5", "trainable": true, "max_value": 6.0, "negative_slope": 0.0, "threshold": 0.0}, "inbound_nodes": [[["LAYER_4", 0, 0, {}]]]}, {"name": "LAYER_6", "class_name": "Conv2D", "config": {"name": "LAYER_6", "trainable": true, "filters": 16, "kernel_size": [1, 1], "strides": [1, 1], "padding": "valid", "data_format": "channels_first", "dilation_rate": [1, 1], "activation": "linear", "use_bias": false, "kernel_initializer": {"class_name": "Zeros", "config": {}}, "bias_initializer": {"class_name": "Zeros", "config": {}}, "kernel_regularizer": null, "bias_regularizer": null, "activity_regularizer": null, "kernel_constraint": null, "bias_constraint": null}, "inbound_nodes": [[["LAYER_5", 0, 0, {}]]]}, {"name": "LAYER_7", "class_name": "BatchNormalization", "config": {"name": "LAYER_7", "trainable": true, "axis": 1, "momentum": 0.8999999761581421, "epsilon": 9.999999747378752e-06, "center": true, "scale": true, "beta_initializer": {"class_name": "Zeros", "config": {}}, "gamma_initializer": {"class_name": "Ones", "config": {}}, "moving_mean_initializer": {"class_name": "Zeros", "config": {}}, "moving_variance_initializer": {"class_name": "Ones", "config": {}}, "beta_regularizer": null, "gamma_regularizer": null, "beta_constraint": null, "gamma_constraint": null}, "inbound_nodes": [[["LAYER_6", 0, 0, {}]]]}, {"name": "LAYER_8", "class_name": "Conv2D", "config": {"name": "LAYER_8", "trainable": true, "filters": 96, "kernel_size": [1, 1], "strides": [1, 1], "padding": "valid", "data_format": "channels_first", "dilation_rate": [1, 1], "activation": "linear", "use_bias": false, "kernel_initializer": {"class_name": "Zeros", "config": {}}, "bias_initializer": {"class_name": "Zeros", "config": {}}, "kernel_regularizer": null, "bias_regularizer": null, "activity_regularizer": null, "kernel_constraint": null, "bias_constraint": null}, "inbound_nodes": [[["LAYER_7", 0, 0, {}]]]}, {"name": "LAYER_9", "class_name": "BatchNormalization", "config": {"name": "LAYER_9", "trainable": true, "axis": 1, "momentum": 0.8999999761581421, "epsilon": 9.999999747378752e-06, "center": true, "scale": true, "beta_initializer": {"class_name": "Zeros", "config": {}}, "gamma_initializer": {"class_name": "Ones", "config": {}}, "moving_mean_initializer": {"class_name": "Zeros", "config": {}}, "moving_variance_initializer": {"class_name": "Ones", "config": {}}, "beta_regularizer": null, "gamma_regularizer": null, "beta_constraint": null, "gamma_constraint": null}, "inbound_nodes": [[["LAYER_8", 0, 0, {}]]]}, {"name": "LAYER_10", "class_name": "ReLU", "config": {"name": "LAYER_10", "trainable": true, "max_value": 6.0, "negative_slope": 0.0, "threshold": 0.0}, "inbound_nodes": [[["LAYER_9", 0, 0, {}]]]}, {"name": "LAYER_11_pad", "class_name": "ZeroPadding2D", "config": {"name": "LAYER_11_pad", "trainable": true, "padding": [[1, 1], [1, 1]], "data_format": "channels_first"}, "inbound_nodes": [[["LAYER_10", 0, 0, {}]]]}, {"name": "LAYER_11", "class_name": "DepthwiseConv2D", "config": {"name": "LAYER_11", "trainable": true, "kernel_size": [3, 3], "strides": [2, 2], "padding": "valid", "data_format": "channels_first", "dilation_rate": [1, 1], "activation": "linear", "use_bias": false, "bias_initializer": {"class_name": "Zeros", "config": {}}, "bias_regularizer": null, "activity_regularizer": null, "bias_constraint": null, "depth_multiplier": 1, "depthwise_initializer": {"class_name": "VarianceScaling", "config": {"scale": 1.0, "mode": "fan_avg", "distribution": "uniform", "seed": null}}, "depthwise_regularizer": null, "depthwise_constraint": null}, "inbound_nodes": [[["LAYER_11_pad", 0, 0, {}]]]}, {"name": "LAYER_12", "class_name": "BatchNormalization", "config": {"name": "LAYER_12", "trainable": true, "axis": 1, "momentum": 0.8999999761581421, "epsilon": 9.999999747378752e-06, "center": true, "scale": true, "beta_initializer": {"class_name": "Zeros", "config": {}}, "gamma_initializer": {"class_name": "Ones", "config": {}}, "moving_mean_initializer": {"class_name": "Zeros", "config": {}}, "moving_variance_initializer": {"class_name": "Ones", "config": {}}, "beta_regularizer": null, "gamma_regularizer": null, "beta_constraint": null, "gamma_constraint": null}, "inbound_nodes": [[["LAYER_11", 0, 0, {}]]]}, {"name": "LAYER_13", "class_name": "ReLU", "config": {"name": "LAYER_13", "trainable": true, "max_value": 6.0, "negative_slope": 0.0, "threshold": 0.0}, "inbound_nodes": [[["LAYER_12", 0, 0, {}]]]}, {"name": "LAYER_14", "class_name": "Conv2D", "config": {"name": "LAYER_14", "trainable": true, "filters": 24, "kernel_size": [1, 1], "strides": [1, 1], "padding": "valid", "data_format": "channels_first", "dilation_rate": [1, 1], "activation": "linear", "use_bias": false, "kernel_initializer": {"class_name": "Zeros", "config": {}}, "bias_initializer": {"class_name": "Zeros", "config": {}}, "kernel_regularizer": null, "bias_regularizer": null, "activity_regularizer": null, "kernel_constraint": null, "bias_constraint": null}, "inbound_nodes": [[["LAYER_13", 0, 0, {}]]]}, {"name": "LAYER_15", "class_name": "BatchNormalization", "config": {"name": "LAYER_15", "trainable": true, "axis": 1, "momentum": 0.8999999761581421, "epsilon": 9.999999747378752e-06, "center": true, "scale": true, "beta_initializer": {"class_name": "Zeros", "config": {}}, "gamma_initializer": {"class_name": "Ones", "config": {}}, "moving_mean_initializer": {"class_name": "Zeros", "config": {}}, "moving_variance_initializer": {"class_name": "Ones", "config": {}}, "beta_regularizer": null, "gamma_regularizer": null, "beta_constraint": null, "gamma_constraint": null}, "inbound_nodes": [[["LAYER_14", 0, 0, {}]]]}, {"name": "LAYER_16", "class_name": "Conv2D", "config": {"name": "LAYER_16", "trainable": true, "filters": 144, "kernel_size": [1, 1], "strides": [1, 1], "padding": "valid", "data_format": "channels_first", "dilation_rate": [1, 1], "activation": "linear", "use_bias": false, "kernel_initializer": {"class_name": "Zeros", "config": {}}, "bias_initializer": {"class_name": "Zeros", "config": {}}, "kernel_regularizer": null, "bias_regularizer": null, "activity_regularizer": null, "kernel_constraint": null, "bias_constraint": null}, "inbound_nodes": [[["LAYER_15", 0, 0, {}]]]}, {"name": "LAYER_17", "class_name": "BatchNormalization", "config": {"name": "LAYER_17", "trainable": true, "axis": 1, "momentum": 0.8999999761581421, "epsilon": 9.999999747378752e-06, "center": true, "scale": true, "beta_initializer": {"class_name": "Zeros", "config": {}}, "gamma_initializer": {"class_name": "Ones", "config": {}}, "moving_mean_initializer": {"class_name": "Zeros", "config": {}}, "moving_variance_initializer": {"class_name": "Ones", "config": {}}, "beta_regularizer": null, "gamma_regularizer": null, "beta_constraint": null, "gamma_constraint": null}, "inbound_nodes": [[["LAYER_16", 0, 0, {}]]]}, {"name": "LAYER_18", "class_name": "ReLU", "config": {"name": "LAYER_18", "trainable": true, "max_value": 6.0, "negative_slope": 0.0, "threshold": 0.0}, "inbound_nodes": [[["LAYER_17", 0, 0, {}]]]}, {"name": "LAYER_19_pad", "class_name": "ZeroPadding2D", "config": {"name": "LAYER_19_pad", "trainable": true, "padding": [[1, 1], [1, 1]], "data_format": "channels_first"}, "inbound_nodes": [[["LAYER_18", 0, 0, {}]]]}, {"name": "LAYER_19", "class_name": "DepthwiseConv2D", "config": {"name": "LAYER_19", "trainable": true, "kernel_size": [3, 3], "strides": [1, 1], "padding": "valid", "data_format": "channels_first", "dilation_rate": [1, 1], "activation": "linear", "use_bias": false, "bias_initializer": {"class_name": "Zeros", "config": {}}, "bias_regularizer": null, "activity_regularizer": null, "bias_constraint": null, "depth_multiplier": 1, "depthwise_initializer": {"class_name": "VarianceScaling", "config": {"scale": 1.0, "mode": "fan_avg", "distribution": "uniform", "seed": null}}, "depthwise_regularizer": null, "depthwise_constraint": null}, "inbound_nodes": [[["LAYER_19_pad", 0, 0, {}]]]}, {"name": "LAYER_20", "class_name": "BatchNormalization", "config": {"name": "LAYER_20", "trainable": true, "axis": 1, "momentum": 0.8999999761581421, "epsilon": 9.999999747378752e-06, "center": true, "scale": true, "beta_initializer": {"class_name": "Zeros", "config": {}}, "gamma_initializer": {"class_name": "Ones", "config": {}}, "moving_mean_initializer": {"class_name": "Zeros", "config": {}}, "moving_variance_initializer": {"class_name": "Ones", "config": {}}, "beta_regularizer": null, "gamma_regularizer": null, "beta_constraint": null, "gamma_constraint": null}, "inbound_nodes": [[["LAYER_19", 0, 0, {}]]]}, {"name": "LAYER_21", "class_name": "ReLU", "config": {"name": "LAYER_21", "trainable": true, "max_value": 6.0, "negative_slope": 0.0, "threshold": 0.0}, "inbound_nodes": [[["LAYER_20", 0, 0, {}]]]}, {"name": "LAYER_22", "class_name": "Conv2D", "config": {"name": "LAYER_22", "trainable": true, "filters": 24, "kernel_size": [1, 1], "strides": [1, 1], "padding": "valid", "data_format": "channels_first", "dilation_rate": [1, 1], "activation": "linear", "use_bias": false, "kernel_initializer": {"class_name": "Zeros", "config": {}}, "bias_initializer": {"class_name": "Zeros", "config": {}}, "kernel_regularizer": null, "bias_regularizer": null, "activity_regularizer": null, "kernel_constraint": null, "bias_constraint": null}, "inbound_nodes": [[["LAYER_21", 0, 0, {}]]]}, {"name": "LAYER_23", "class_name": "BatchNormalization", "config": {"name": "LAYER_23", "trainable": true, "axis": 1, "momentum": 0.8999999761581421, "epsilon": 9.999999747378752e-06, "center": true, "scale": true, "beta_initializer": {"class_name": "Zeros", "config": {}}, "gamma_initializer": {"class_name": "Ones", "config": {}}, "moving_mean_initializer": {"class_name": "Zeros", "config": {}}, "moving_variance_initializer": {"class_name": "Ones", "config": {}}, "beta_regularizer": null, "gamma_regularizer": null, "beta_constraint": null, "gamma_constraint": null}, "inbound_nodes": [[["LAYER_22", 0, 0, {}]]]}, {"name": "LAYER_24", "class_name": "Add", "config": {"name": "LAYER_24", "trainable": true}, "inbound_nodes": [[["LAYER_15", 0, 0, {}], ["LAYER_23", 0, 0, {}]]]}, {"name": "LAYER_25", "class_name": "Conv2D", "config": {"name": "LAYER_25", "trainable": true, "filters": 144, "kernel_size": [1, 1], "strides": [1, 1], "padding": "valid", "data_format": "channels_first", "dilation_rate": [1, 1], "activation": "linear", "use_bias": false, "kernel_initializer": {"class_name": "Zeros", "config": {}}, "bias_initializer": {"class_name": "Zeros", "config": {}}, "kernel_regularizer": null, "bias_regularizer": null, "activity_regularizer": null, "kernel_constraint": null, "bias_constraint": null}, "inbound_nodes": [[["LAYER_24", 0, 0, {}]]]}, {"name": "LAYER_26", "class_name": "BatchNormalization", "config": {"name": "LAYER_26", "trainable": true, "axis": 1, "momentum": 0.8999999761581421, "epsilon": 9.999999747378752e-06, "center": true, "scale": true, "beta_initializer": {"class_name": "Zeros", "config": {}}, "gamma_initializer": {"class_name": "Ones", "config": {}}, "moving_mean_initializer": {"class_name": "Zeros", "config": {}}, "moving_variance_initializer": {"class_name": "Ones", "config": {}}, "beta_regularizer": null, "gamma_regularizer": null, "beta_constraint": null, "gamma_constraint": null}, "inbound_nodes": [[["LAYER_25", 0, 0, {}]]]}, {"name": "LAYER_27", "class_name": "ReLU", "config": {"name": "LAYER_27", "trainable": true, "max_value": 6.0, "negative_slope": 0.0, "threshold": 0.0}, "inbound_nodes": [[["LAYER_26", 0, 0, {}]]]}, {"name": "LAYER_28_pad", "class_name": "ZeroPadding2D", "config": {"name": "LAYER_28_pad", "trainable": true, "padding": [[1, 1], [1, 1]], "data_format": "channels_first"}, "inbound_nodes": [[["LAYER_27", 0, 0, {}]]]}, {"name": "LAYER_28", "class_name": "DepthwiseConv2D", "config": {"name": "LAYER_28", "trainable": true, "kernel_size": [3, 3], "strides": [2, 2], "padding": "valid", "data_format": "channels_first", "dilation_rate": [1, 1], "activation": "linear", "use_bias": false, "bias_initializer": {"class_name": "Zeros", "config": {}}, "bias_regularizer": null, "activity_regularizer": null, "bias_constraint": null, "depth_multiplier": 1, "depthwise_initializer": {"class_name": "VarianceScaling", "config": {"scale": 1.0, "mode": "fan_avg", "distribution": "uniform", "seed": null}}, "depthwise_regularizer": null, "depthwise_constraint": null}, "inbound_nodes": [[["LAYER_28_pad", 0, 0, {}]]]}, {"name": "LAYER_29", "class_name": "BatchNormalization", "config": {"name": "LAYER_29", "trainable": true, "axis": 1, "momentum": 0.8999999761581421, "epsilon": 9.999999747378752e-06, "center": true, "scale": true, "beta_initializer": {"class_name": "Zeros", "config": {}}, "gamma_initializer": {"class_name": "Ones", "config": {}}, "moving_mean_initializer": {"class_name": "Zeros", "config": {}}, "moving_variance_initializer": {"class_name": "Ones", "config": {}}, "beta_regularizer": null, "gamma_regularizer": null, "beta_constraint": null, "gamma_constraint": null}, "inbound_nodes": [[["LAYER_28", 0, 0, {}]]]}, {"name": "LAYER_30", "class_name": "ReLU", "config": {"name": "LAYER_30", "trainable": true, "max_value": 6.0, "negative_slope": 0.0, "threshold": 0.0}, "inbound_nodes": [[["LAYER_29", 0, 0, {}]]]}, {"name": "LAYER_31", "class_name": "Conv2D", "config": {"name": "LAYER_31", "trainable": true, "filters": 32, "kernel_size": [1, 1], "strides": [1, 1], "padding": "valid", "data_format": "channels_first", "dilation_rate": [1, 1], "activation": "linear", "use_bias": false, "kernel_initializer": {"class_name": "Zeros", "config": {}}, "bias_initializer": {"class_name": "Zeros", "config": {}}, "kernel_regularizer": null, "bias_regularizer": null, "activity_regularizer": null, "kernel_constraint": null, "bias_constraint": null}, "inbound_nodes": [[["LAYER_30", 0, 0, {}]]]}, {"name": "LAYER_32", "class_name": "BatchNormalization", "config": {"name": "LAYER_32", "trainable": true, "axis": 1, "momentum": 0.8999999761581421, "epsilon": 9.999999747378752e-06, "center": true, "scale": true, "beta_initializer": {"class_name": "Zeros", "config": {}}, "gamma_initializer": {"class_name": "Ones", "config": {}}, "moving_mean_initializer": {"class_name": "Zeros", "config": {}}, "moving_variance_initializer": {"class_name": "Ones", "config": {}}, "beta_regularizer": null, "gamma_regularizer": null, "beta_constraint": null, "gamma_constraint": null}, "inbound_nodes": [[["LAYER_31", 0, 0, {}]]]}, {"name": "LAYER_33", "class_name": "Conv2D", "config": {"name": "LAYER_33", "trainable": true, "filters": 192, "kernel_size": [1, 1], "strides": [1, 1], "padding": "valid", "data_format": "channels_first", "dilation_rate": [1, 1], "activation": "linear", "use_bias": false, "kernel_initializer": {"class_name": "Zeros", "config": {}}, "bias_initializer": {"class_name": "Zeros", "config": {}}, "kernel_regularizer": null, "bias_regularizer": null, "activity_regularizer": null, "kernel_constraint": null, "bias_constraint": null}, "inbound_nodes": [[["LAYER_32", 0, 0, {}]]]}, {"name": "LAYER_34", "class_name": "BatchNormalization", "config": {"name": "LAYER_34", "trainable": true, "axis": 1, "momentum": 0.8999999761581421, "epsilon": 9.999999747378752e-06, "center": true, "scale": true, "beta_initializer": {"class_name": "Zeros", "config": {}}, "gamma_initializer": {"class_name": "Ones", "config": {}}, "moving_mean_initializer": {"class_name": "Zeros", "config": {}}, "moving_variance_initializer": {"class_name": "Ones", "config": {}}, "beta_regularizer": null, "gamma_regularizer": null, "beta_constraint": null, "gamma_constraint": null}, "inbound_nodes": [[["LAYER_33", 0, 0, {}]]]}, {"name": "LAYER_35", "class_name": "ReLU", "config": {"name": "LAYER_35", "trainable": true, "max_value": 6.0, "negative_slope": 0.0, "threshold": 0.0}, "inbound_nodes": [[["LAYER_34", 0, 0, {}]]]}, {"name": "LAYER_36_pad", "class_name": "ZeroPadding2D", "config": {"name": "LAYER_36_pad", "trainable": true, "padding": [[1, 1], [1, 1]], "data_format": "channels_first"}, "inbound_nodes": [[["LAYER_35", 0, 0, {}]]]}, {"name": "LAYER_36", "class_name": "DepthwiseConv2D", "config": {"name": "LAYER_36", "trainable": true, "kernel_size": [3, 3], "strides": [1, 1], "padding": "valid", "data_format": "channels_first", "dilation_rate": [1, 1], "activation": "linear", "use_bias": false, "bias_initializer": {"class_name": "Zeros", "config": {}}, "bias_regularizer": null, "activity_regularizer": null, "bias_constraint": null, "depth_multiplier": 1, "depthwise_initializer": {"class_name": "VarianceScaling", "config": {"scale": 1.0, "mode": "fan_avg", "distribution": "uniform", "seed": null}}, "depthwise_regularizer": null, "depthwise_constraint": null}, "inbound_nodes": [[["LAYER_36_pad", 0, 0, {}]]]}, {"name": "LAYER_37", "class_name": "BatchNormalization", "config": {"name": "LAYER_37", "trainable": true, "axis": 1, "momentum": 0.8999999761581421, "epsilon": 9.999999747378752e-06, "center": true, "scale": true, "beta_initializer": {"class_name": "Zeros", "config": {}}, "gamma_initializer": {"class_name": "Ones", "config": {}}, "moving_mean_initializer": {"class_name": "Zeros", "config": {}}, "moving_variance_initializer": {"class_name": "Ones", "config": {}}, "beta_regularizer": null, "gamma_regularizer": null, "beta_constraint": null, "gamma_constraint": null}, "inbound_nodes": [[["LAYER_36", 0, 0, {}]]]}, {"name": "LAYER_38", "class_name": "ReLU", "config": {"name": "LAYER_38", "trainable": true, "max_value": 6.0, "negative_slope": 0.0, "threshold": 0.0}, "inbound_nodes": [[["LAYER_37", 0, 0, {}]]]}, {"name": "LAYER_39", "class_name": "Conv2D", "config": {"name": "LAYER_39", "trainable": true, "filters": 32, "kernel_size": [1, 1], "strides": [1, 1], "padding": "valid", "data_format": "channels_first", "dilation_rate": [1, 1], "activation": "linear", "use_bias": false, "kernel_initializer": {"class_name": "Zeros", "config": {}}, "bias_initializer": {"class_name": "Zeros", "config": {}}, "kernel_regularizer": null, "bias_regularizer": null, "activity_regularizer": null, "kernel_constraint": null, "bias_constraint": null}, "inbound_nodes": [[["LAYER_38", 0, 0, {}]]]}, {"name": "LAYER_40", "class_name": "BatchNormalization", "config": {"name": "LAYER_40", "trainable": true, "axis": 1, "momentum": 0.8999999761581421, "epsilon": 9.999999747378752e-06, "center": true, "scale": true, "beta_initializer": {"class_name": "Zeros", "config": {}}, "gamma_initializer": {"class_name": "Ones", "config": {}}, "moving_mean_initializer": {"class_name": "Zeros", "config": {}}, "moving_variance_initializer": {"class_name": "Ones", "config": {}}, "beta_regularizer": null, "gamma_regularizer": null, "beta_constraint": null, "gamma_constraint": null}, "inbound_nodes": [[["LAYER_39", 0, 0, {}]]]}, {"name": "LAYER_41", "class_name": "Add", "config": {"name": "LAYER_41", "trainable": true}, "inbound_nodes": [[["LAYER_32", 0, 0, {}], ["LAYER_40", 0, 0, {}]]]}, {"name": "LAYER_42", "class_name": "Conv2D", "config": {"name": "LAYER_42", "trainable": true, "filters": 192, "kernel_size": [1, 1], "strides": [1, 1], "padding": "valid", "data_format": "channels_first", "dilation_rate": [1, 1], "activation": "linear", "use_bias": false, "kernel_initializer": {"class_name": "Zeros", "config": {}}, "bias_initializer": {"class_name": "Zeros", "config": {}}, "kernel_regularizer": null, "bias_regularizer": null, "activity_regularizer": null, "kernel_constraint": null, "bias_constraint": null}, "inbound_nodes": [[["LAYER_41", 0, 0, {}]]]}, {"name": "LAYER_43", "class_name": "BatchNormalization", "config": {"name": "LAYER_43", "trainable": true, "axis": 1, "momentum": 0.8999999761581421, "epsilon": 9.999999747378752e-06, "center": true, "scale": true, "beta_initializer": {"class_name": "Zeros", "config": {}}, "gamma_initializer": {"class_name": "Ones", "config": {}}, "moving_mean_initializer": {"class_name": "Zeros", "config": {}}, "moving_variance_initializer": {"class_name": "Ones", "config": {}}, "beta_regularizer": null, "gamma_regularizer": null, "beta_constraint": null, "gamma_constraint": null}, "inbound_nodes": [[["LAYER_42", 0, 0, {}]]]}, {"name": "LAYER_44", "class_name": "ReLU", "config": {"name": "LAYER_44", "trainable": true, "max_value": 6.0, "negative_slope": 0.0, "threshold": 0.0}, "inbound_nodes": [[["LAYER_43", 0, 0, {}]]]}, {"name": "LAYER_45_pad", "class_name": "ZeroPadding2D", "config": {"name": "LAYER_45_pad", "trainable": true, "padding": [[1, 1], [1, 1]], "data_format": "channels_first"}, "inbound_nodes": [[["LAYER_44", 0, 0, {}]]]}, {"name": "LAYER_45", "class_name": "DepthwiseConv2D", "config": {"name": "LAYER_45", "trainable": true, "kernel_size": [3, 3], "strides": [1, 1], "padding": "valid", "data_format": "channels_first", "dilation_rate": [1, 1], "activation": "linear", "use_bias": false, "bias_initializer": {"class_name": "Zeros", "config": {}}, "bias_regularizer": null, "activity_regularizer": null, "bias_constraint": null, "depth_multiplier": 1, "depthwise_initializer": {"class_name": "VarianceScaling", "config": {"scale": 1.0, "mode": "fan_avg", "distribution": "uniform", "seed": null}}, "depthwise_regularizer": null, "depthwise_constraint": null}, "inbound_nodes": [[["LAYER_45_pad", 0, 0, {}]]]}, {"name": "LAYER_46", "class_name": "BatchNormalization", "config": {"name": "LAYER_46", "trainable": true, "axis": 1, "momentum": 0.8999999761581421, "epsilon": 9.999999747378752e-06, "center": true, "scale": true, "beta_initializer": {"class_name": "Zeros", "config": {}}, "gamma_initializer": {"class_name": "Ones", "config": {}}, "moving_mean_initializer": {"class_name": "Zeros", "config": {}}, "moving_variance_initializer": {"class_name": "Ones", "config": {}}, "beta_regularizer": null, "gamma_regularizer": null, "beta_constraint": null, "gamma_constraint": null}, "inbound_nodes": [[["LAYER_45", 0, 0, {}]]]}, {"name": "LAYER_47", "class_name": "ReLU", "config": {"name": "LAYER_47", "trainable": true, "max_value": 6.0, "negative_slope": 0.0, "threshold": 0.0}, "inbound_nodes": [[["LAYER_46", 0, 0, {}]]]}, {"name": "LAYER_48", "class_name": "Conv2D", "config": {"name": "LAYER_48", "trainable": true, "filters": 32, "kernel_size": [1, 1], "strides": [1, 1], "padding": "valid", "data_format": "channels_first", "dilation_rate": [1, 1], "activation": "linear", "use_bias": false, "kernel_initializer": {"class_name": "Zeros", "config": {}}, "bias_initializer": {"class_name": "Zeros", "config": {}}, "kernel_regularizer": null, "bias_regularizer": null, "activity_regularizer": null, "kernel_constraint": null, "bias_constraint": null}, "inbound_nodes": [[["LAYER_47", 0, 0, {}]]]}, {"name": "LAYER_49", "class_name": "BatchNormalization", "config": {"name": "LAYER_49", "trainable": true, "axis": 1, "momentum": 0.8999999761581421, "epsilon": 9.999999747378752e-06, "center": true, "scale": true, "beta_initializer": {"class_name": "Zeros", "config": {}}, "gamma_initializer": {"class_name": "Ones", "config": {}}, "moving_mean_initializer": {"class_name": "Zeros", "config": {}}, "moving_variance_initializer": {"class_name": "Ones", "config": {}}, "beta_regularizer": null, "gamma_regularizer": null, "beta_constraint": null, "gamma_constraint": null}, "inbound_nodes": [[["LAYER_48", 0, 0, {}]]]}, {"name": "LAYER_50", "class_name": "Add", "config": {"name": "LAYER_50", "trainable": true}, "inbound_nodes": [[["LAYER_41", 0, 0, {}], ["LAYER_49", 0, 0, {}]]]}, {"name": "LAYER_51", "class_name": "Conv2D", "config": {"name": "LAYER_51", "trainable": true, "filters": 192, "kernel_size": [1, 1], "strides": [1, 1], "padding": "valid", "data_format": "channels_first", "dilation_rate": [1, 1], "activation": "linear", "use_bias": false, "kernel_initializer": {"class_name": "Zeros", "config": {}}, "bias_initializer": {"class_name": "Zeros", "config": {}}, "kernel_regularizer": null, "bias_regularizer": null, "activity_regularizer": null, "kernel_constraint": null, "bias_constraint": null}, "inbound_nodes": [[["LAYER_50", 0, 0, {}]]]}, {"name": "LAYER_52", "class_name": "BatchNormalization", "config": {"name": "LAYER_52", "trainable": true, "axis": 1, "momentum": 0.8999999761581421, "epsilon": 9.999999747378752e-06, "center": true, "scale": true, "beta_initializer": {"class_name": "Zeros", "config": {}}, "gamma_initializer": {"class_name": "Ones", "config": {}}, "moving_mean_initializer": {"class_name": "Zeros", "config": {}}, "moving_variance_initializer": {"class_name": "Ones", "config": {}}, "beta_regularizer": null, "gamma_regularizer": null, "beta_constraint": null, "gamma_constraint": null}, "inbound_nodes": [[["LAYER_51", 0, 0, {}]]]}, {"name": "LAYER_53", "class_name": "ReLU", "config": {"name": "LAYER_53", "trainable": true, "max_value": 6.0, "negative_slope": 0.0, "threshold": 0.0}, "inbound_nodes": [[["LAYER_52", 0, 0, {}]]]}, {"name": "LAYER_54_pad", "class_name": "ZeroPadding2D", "config": {"name": "LAYER_54_pad", "trainable": true, "padding": [[1, 1], [1, 1]], "data_format": "channels_first"}, "inbound_nodes": [[["LAYER_53", 0, 0, {}]]]}, {"name": "LAYER_54", "class_name": "DepthwiseConv2D", "config": {"name": "LAYER_54", "trainable": true, "kernel_size": [3, 3], "strides": [2, 2], "padding": "valid", "data_format": "channels_first", "dilation_rate": [1, 1], "activation": "linear", "use_bias": false, "bias_initializer": {"class_name": "Zeros", "config": {}}, "bias_regularizer": null, "activity_regularizer": null, "bias_constraint": null, "depth_multiplier": 1, "depthwise_initializer": {"class_name": "VarianceScaling", "config": {"scale": 1.0, "mode": "fan_avg", "distribution": "uniform", "seed": null}}, "depthwise_regularizer": null, "depthwise_constraint": null}, "inbound_nodes": [[["LAYER_54_pad", 0, 0, {}]]]}, {"name": "LAYER_55", "class_name": "BatchNormalization", "config": {"name": "LAYER_55", "trainable": true, "axis": 1, "momentum": 0.8999999761581421, "epsilon": 9.999999747378752e-06, "center": true, "scale": true, "beta_initializer": {"class_name": "Zeros", "config": {}}, "gamma_initializer": {"class_name": "Ones", "config": {}}, "moving_mean_initializer": {"class_name": "Zeros", "config": {}}, "moving_variance_initializer": {"class_name": "Ones", "config": {}}, "beta_regularizer": null, "gamma_regularizer": null, "beta_constraint": null, "gamma_constraint": null}, "inbound_nodes": [[["LAYER_54", 0, 0, {}]]]}, {"name": "LAYER_56", "class_name": "ReLU", "config": {"name": "LAYER_56", "trainable": true, "max_value": 6.0, "negative_slope": 0.0, "threshold": 0.0}, "inbound_nodes": [[["LAYER_55", 0, 0, {}]]]}, {"name": "LAYER_57", "class_name": "Conv2D", "config": {"name": "LAYER_57", "trainable": true, "filters": 64, "kernel_size": [1, 1], "strides": [1, 1], "padding": "valid", "data_format": "channels_first", "dilation_rate": [1, 1], "activation": "linear", "use_bias": false, "kernel_initializer": {"class_name": "Zeros", "config": {}}, "bias_initializer": {"class_name": "Zeros", "config": {}}, "kernel_regularizer": null, "bias_regularizer": null, "activity_regularizer": null, "kernel_constraint": null, "bias_constraint": null}, "inbound_nodes": [[["LAYER_56", 0, 0, {}]]]}, {"name": "LAYER_58", "class_name": "BatchNormalization", "config": {"name": "LAYER_58", "trainable": true, "axis": 1, "momentum": 0.8999999761581421, "epsilon": 9.999999747378752e-06, "center": true, "scale": true, "beta_initializer": {"class_name": "Zeros", "config": {}}, "gamma_initializer": {"class_name": "Ones", "config": {}}, "moving_mean_initializer": {"class_name": "Zeros", "config": {}}, "moving_variance_initializer": {"class_name": "Ones", "config": {}}, "beta_regularizer": null, "gamma_regularizer": null, "beta_constraint": null, "gamma_constraint": null}, "inbound_nodes": [[["LAYER_57", 0, 0, {}]]]}, {"name": "LAYER_59", "class_name": "Conv2D", "config": {"name": "LAYER_59", "trainable": true, "filters": 384, "kernel_size": [1, 1], "strides": [1, 1], "padding": "valid", "data_format": "channels_first", "dilation_rate": [1, 1], "activation": "linear", "use_bias": false, "kernel_initializer": {"class_name": "Zeros", "config": {}}, "bias_initializer": {"class_name": "Zeros", "config": {}}, "kernel_regularizer": null, "bias_regularizer": null, "activity_regularizer": null, "kernel_constraint": null, "bias_constraint": null}, "inbound_nodes": [[["LAYER_58", 0, 0, {}]]]}, {"name": "LAYER_60", "class_name": "BatchNormalization", "config": {"name": "LAYER_60", "trainable": true, "axis": 1, "momentum": 0.8999999761581421, "epsilon": 9.999999747378752e-06, "center": true, "scale": true, "beta_initializer": {"class_name": "Zeros", "config": {}}, "gamma_initializer": {"class_name": "Ones", "config": {}}, "moving_mean_initializer": {"class_name": "Zeros", "config": {}}, "moving_variance_initializer": {"class_name": "Ones", "config": {}}, "beta_regularizer": null, "gamma_regularizer": null, "beta_constraint": null, "gamma_constraint": null}, "inbound_nodes": [[["LAYER_59", 0, 0, {}]]]}, {"name": "LAYER_61", "class_name": "ReLU", "config": {"name": "LAYER_61", "trainable": true, "max_value": 6.0, "negative_slope": 0.0, "threshold": 0.0}, "inbound_nodes": [[["LAYER_60", 0, 0, {}]]]}, {"name": "LAYER_62_pad", "class_name": "ZeroPadding2D", "config": {"name": "LAYER_62_pad", "trainable": true, "padding": [[1, 1], [1, 1]], "data_format": "channels_first"}, "inbound_nodes": [[["LAYER_61", 0, 0, {}]]]}, {"name": "LAYER_62", "class_name": "DepthwiseConv2D", "config": {"name": "LAYER_62", "trainable": true, "kernel_size": [3, 3], "strides": [1, 1], "padding": "valid", "data_format": "channels_first", "dilation_rate": [1, 1], "activation": "linear", "use_bias": false, "bias_initializer": {"class_name": "Zeros", "config": {}}, "bias_regularizer": null, "activity_regularizer": null, "bias_constraint": null, "depth_multiplier": 1, "depthwise_initializer": {"class_name": "VarianceScaling", "config": {"scale": 1.0, "mode": "fan_avg", "distribution": "uniform", "seed": null}}, "depthwise_regularizer": null, "depthwise_constraint": null}, "inbound_nodes": [[["LAYER_62_pad", 0, 0, {}]]]}, {"name": "LAYER_63", "class_name": "BatchNormalization", "config": {"name": "LAYER_63", "trainable": true, "axis": 1, "momentum": 0.8999999761581421, "epsilon": 9.999999747378752e-06, "center": true, "scale": true, "beta_initializer": {"class_name": "Zeros", "config": {}}, "gamma_initializer": {"class_name": "Ones", "config": {}}, "moving_mean_initializer": {"class_name": "Zeros", "config": {}}, "moving_variance_initializer": {"class_name": "Ones", "config": {}}, "beta_regularizer": null, "gamma_regularizer": null, "beta_constraint": null, "gamma_constraint": null}, "inbound_nodes": [[["LAYER_62", 0, 0, {}]]]}, {"name": "LAYER_64", "class_name": "ReLU", "config": {"name": "LAYER_64", "trainable": true, "max_value": 6.0, "negative_slope": 0.0, "threshold": 0.0}, "inbound_nodes": [[["LAYER_63", 0, 0, {}]]]}, {"name": "LAYER_65", "class_name": "Conv2D", "config": {"name": "LAYER_65", "trainable": true, "filters": 64, "kernel_size": [1, 1], "strides": [1, 1], "padding": "valid", "data_format": "channels_first", "dilation_rate": [1, 1], "activation": "linear", "use_bias": false, "kernel_initializer": {"class_name": "Zeros", "config": {}}, "bias_initializer": {"class_name": "Zeros", "config": {}}, "kernel_regularizer": null, "bias_regularizer": null, "activity_regularizer": null, "kernel_constraint": null, "bias_constraint": null}, "inbound_nodes": [[["LAYER_64", 0, 0, {}]]]}, {"name": "LAYER_66", "class_name": "BatchNormalization", "config": {"name": "LAYER_66", "trainable": true, "axis": 1, "momentum": 0.8999999761581421, "epsilon": 9.999999747378752e-06, "center": true, "scale": true, "beta_initializer": {"class_name": "Zeros", "config": {}}, "gamma_initializer": {"class_name": "Ones", "config": {}}, "moving_mean_initializer": {"class_name": "Zeros", "config": {}}, "moving_variance_initializer": {"class_name": "Ones", "config": {}}, "beta_regularizer": null, "gamma_regularizer": null, "beta_constraint": null, "gamma_constraint": null}, "inbound_nodes": [[["LAYER_65", 0, 0, {}]]]}, {"name": "LAYER_67", "class_name": "Add", "config": {"name": "LAYER_67", "trainable": true}, "inbound_nodes": [[["LAYER_58", 0, 0, {}], ["LAYER_66", 0, 0, {}]]]}, {"name": "LAYER_68", "class_name": "Conv2D", "config": {"name": "LAYER_68", "trainable": true, "filters": 384, "kernel_size": [1, 1], "strides": [1, 1], "padding": "valid", "data_format": "channels_first", "dilation_rate": [1, 1], "activation": "linear", "use_bias": false, "kernel_initializer": {"class_name": "Zeros", "config": {}}, "bias_initializer": {"class_name": "Zeros", "config": {}}, "kernel_regularizer": null, "bias_regularizer": null, "activity_regularizer": null, "kernel_constraint": null, "bias_constraint": null}, "inbound_nodes": [[["LAYER_67", 0, 0, {}]]]}, {"name": "LAYER_69", "class_name": "BatchNormalization", "config": {"name": "LAYER_69", "trainable": true, "axis": 1, "momentum": 0.8999999761581421, "epsilon": 9.999999747378752e-06, "center": true, "scale": true, "beta_initializer": {"class_name": "Zeros", "config": {}}, "gamma_initializer": {"class_name": "Ones", "config": {}}, "moving_mean_initializer": {"class_name": "Zeros", "config": {}}, "moving_variance_initializer": {"class_name": "Ones", "config": {}}, "beta_regularizer": null, "gamma_regularizer": null, "beta_constraint": null, "gamma_constraint": null}, "inbound_nodes": [[["LAYER_68", 0, 0, {}]]]}, {"name": "LAYER_70", "class_name": "ReLU", "config": {"name": "LAYER_70", "trainable": true, "max_value": 6.0, "negative_slope": 0.0, "threshold": 0.0}, "inbound_nodes": [[["LAYER_69", 0, 0, {}]]]}, {"name": "LAYER_71_pad", "class_name": "ZeroPadding2D", "config": {"name": "LAYER_71_pad", "trainable": true, "padding": [[1, 1], [1, 1]], "data_format": "channels_first"}, "inbound_nodes": [[["LAYER_70", 0, 0, {}]]]}, {"name": "LAYER_71", "class_name": "DepthwiseConv2D", "config": {"name": "LAYER_71", "trainable": true, "kernel_size": [3, 3], "strides": [1, 1], "padding": "valid", "data_format": "channels_first", "dilation_rate": [1, 1], "activation": "linear", "use_bias": false, "bias_initializer": {"class_name": "Zeros", "config": {}}, "bias_regularizer": null, "activity_regularizer": null, "bias_constraint": null, "depth_multiplier": 1, "depthwise_initializer": {"class_name": "VarianceScaling", "config": {"scale": 1.0, "mode": "fan_avg", "distribution": "uniform", "seed": null}}, "depthwise_regularizer": null, "depthwise_constraint": null}, "inbound_nodes": [[["LAYER_71_pad", 0, 0, {}]]]}, {"name": "LAYER_72", "class_name": "BatchNormalization", "config": {"name": "LAYER_72", "trainable": true, "axis": 1, "momentum": 0.8999999761581421, "epsilon": 9.999999747378752e-06, "center": true, "scale": true, "beta_initializer": {"class_name": "Zeros", "config": {}}, "gamma_initializer": {"class_name": "Ones", "config": {}}, "moving_mean_initializer": {"class_name": "Zeros", "config": {}}, "moving_variance_initializer": {"class_name": "Ones", "config": {}}, "beta_regularizer": null, "gamma_regularizer": null, "beta_constraint": null, "gamma_constraint": null}, "inbound_nodes": [[["LAYER_71", 0, 0, {}]]]}, {"name": "LAYER_73", "class_name": "ReLU", "config": {"name": "LAYER_73", "trainable": true, "max_value": 6.0, "negative_slope": 0.0, "threshold": 0.0}, "inbound_nodes": [[["LAYER_72", 0, 0, {}]]]}, {"name": "LAYER_74", "class_name": "Conv2D", "config": {"name": "LAYER_74", "trainable": true, "filters": 64, "kernel_size": [1, 1], "strides": [1, 1], "padding": "valid", "data_format": "channels_first", "dilation_rate": [1, 1], "activation": "linear", "use_bias": false, "kernel_initializer": {"class_name": "Zeros", "config": {}}, "bias_initializer": {"class_name": "Zeros", "config": {}}, "kernel_regularizer": null, "bias_regularizer": null, "activity_regularizer": null, "kernel_constraint": null, "bias_constraint": null}, "inbound_nodes": [[["LAYER_73", 0, 0, {}]]]}, {"name": "LAYER_75", "class_name": "BatchNormalization", "config": {"name": "LAYER_75", "trainable": true, "axis": 1, "momentum": 0.8999999761581421, "epsilon": 9.999999747378752e-06, "center": true, "scale": true, "beta_initializer": {"class_name": "Zeros", "config": {}}, "gamma_initializer": {"class_name": "Ones", "config": {}}, "moving_mean_initializer": {"class_name": "Zeros", "config": {}}, "moving_variance_initializer": {"class_name": "Ones", "config": {}}, "beta_regularizer": null, "gamma_regularizer": null, "beta_constraint": null, "gamma_constraint": null}, "inbound_nodes": [[["LAYER_74", 0, 0, {}]]]}, {"name": "LAYER_76", "class_name": "Add", "config": {"name": "LAYER_76", "trainable": true}, "inbound_nodes": [[["LAYER_67", 0, 0, {}], ["LAYER_75", 0, 0, {}]]]}, {"name": "LAYER_77", "class_name": "Conv2D", "config": {"name": "LAYER_77", "trainable": true, "filters": 384, "kernel_size": [1, 1], "strides": [1, 1], "padding": "valid", "data_format": "channels_first", "dilation_rate": [1, 1], "activation": "linear", "use_bias": false, "kernel_initializer": {"class_name": "Zeros", "config": {}}, "bias_initializer": {"class_name": "Zeros", "config": {}}, "kernel_regularizer": null, "bias_regularizer": null, "activity_regularizer": null, "kernel_constraint": null, "bias_constraint": null}, "inbound_nodes": [[["LAYER_76", 0, 0, {}]]]}, {"name": "LAYER_78", "class_name": "BatchNormalization", "config": {"name": "LAYER_78", "trainable": true, "axis": 1, "momentum": 0.8999999761581421, "epsilon": 9.999999747378752e-06, "center": true, "scale": true, "beta_initializer": {"class_name": "Zeros", "config": {}}, "gamma_initializer": {"class_name": "Ones", "config": {}}, "moving_mean_initializer": {"class_name": "Zeros", "config": {}}, "moving_variance_initializer": {"class_name": "Ones", "config": {}}, "beta_regularizer": null, "gamma_regularizer": null, "beta_constraint": null, "gamma_constraint": null}, "inbound_nodes": [[["LAYER_77", 0, 0, {}]]]}, {"name": "LAYER_79", "class_name": "ReLU", "config": {"name": "LAYER_79", "trainable": true, "max_value": 6.0, "negative_slope": 0.0, "threshold": 0.0}, "inbound_nodes": [[["LAYER_78", 0, 0, {}]]]}, {"name": "LAYER_80_pad", "class_name": "ZeroPadding2D", "config": {"name": "LAYER_80_pad", "trainable": true, "padding": [[1, 1], [1, 1]], "data_format": "channels_first"}, "inbound_nodes": [[["LAYER_79", 0, 0, {}]]]}, {"name": "LAYER_80", "class_name": "DepthwiseConv2D", "config": {"name": "LAYER_80", "trainable": true, "kernel_size": [3, 3], "strides": [1, 1], "padding": "valid", "data_format": "channels_first", "dilation_rate": [1, 1], "activation": "linear", "use_bias": false, "bias_initializer": {"class_name": "Zeros", "config": {}}, "bias_regularizer": null, "activity_regularizer": null, "bias_constraint": null, "depth_multiplier": 1, "depthwise_initializer": {"class_name": "VarianceScaling", "config": {"scale": 1.0, "mode": "fan_avg", "distribution": "uniform", "seed": null}}, "depthwise_regularizer": null, "depthwise_constraint": null}, "inbound_nodes": [[["LAYER_80_pad", 0, 0, {}]]]}, {"name": "LAYER_81", "class_name": "BatchNormalization", "config": {"name": "LAYER_81", "trainable": true, "axis": 1, "momentum": 0.8999999761581421, "epsilon": 9.999999747378752e-06, "center": true, "scale": true, "beta_initializer": {"class_name": "Zeros", "config": {}}, "gamma_initializer": {"class_name": "Ones", "config": {}}, "moving_mean_initializer": {"class_name": "Zeros", "config": {}}, "moving_variance_initializer": {"class_name": "Ones", "config": {}}, "beta_regularizer": null, "gamma_regularizer": null, "beta_constraint": null, "gamma_constraint": null}, "inbound_nodes": [[["LAYER_80", 0, 0, {}]]]}, {"name": "LAYER_82", "class_name": "ReLU", "config": {"name": "LAYER_82", "trainable": true, "max_value": 6.0, "negative_slope": 0.0, "threshold": 0.0}, "inbound_nodes": [[["LAYER_81", 0, 0, {}]]]}, {"name": "LAYER_83", "class_name": "Conv2D", "config": {"name": "LAYER_83", "trainable": true, "filters": 64, "kernel_size": [1, 1], "strides": [1, 1], "padding": "valid", "data_format": "channels_first", "dilation_rate": [1, 1], "activation": "linear", "use_bias": false, "kernel_initializer": {"class_name": "Zeros", "config": {}}, "bias_initializer": {"class_name": "Zeros", "config": {}}, "kernel_regularizer": null, "bias_regularizer": null, "activity_regularizer": null, "kernel_constraint": null, "bias_constraint": null}, "inbound_nodes": [[["LAYER_82", 0, 0, {}]]]}, {"name": "LAYER_84", "class_name": "BatchNormalization", "config": {"name": "LAYER_84", "trainable": true, "axis": 1, "momentum": 0.8999999761581421, "epsilon": 9.999999747378752e-06, "center": true, "scale": true, "beta_initializer": {"class_name": "Zeros", "config": {}}, "gamma_initializer": {"class_name": "Ones", "config": {}}, "moving_mean_initializer": {"class_name": "Zeros", "config": {}}, "moving_variance_initializer": {"class_name": "Ones", "config": {}}, "beta_regularizer": null, "gamma_regularizer": null, "beta_constraint": null, "gamma_constraint": null}, "inbound_nodes": [[["LAYER_83", 0, 0, {}]]]}, {"name": "LAYER_85", "class_name": "Add", "config": {"name": "LAYER_85", "trainable": true}, "inbound_nodes": [[["LAYER_76", 0, 0, {}], ["LAYER_84", 0, 0, {}]]]}, {"name": "LAYER_86", "class_name": "Conv2D", "config": {"name": "LAYER_86", "trainable": true, "filters": 384, "kernel_size": [1, 1], "strides": [1, 1], "padding": "valid", "data_format": "channels_first", "dilation_rate": [1, 1], "activation": "linear", "use_bias": false, "kernel_initializer": {"class_name": "Zeros", "config": {}}, "bias_initializer": {"class_name": "Zeros", "config": {}}, "kernel_regularizer": null, "bias_regularizer": null, "activity_regularizer": null, "kernel_constraint": null, "bias_constraint": null}, "inbound_nodes": [[["LAYER_85", 0, 0, {}]]]}, {"name": "LAYER_87", "class_name": "BatchNormalization", "config": {"name": "LAYER_87", "trainable": true, "axis": 1, "momentum": 0.8999999761581421, "epsilon": 9.999999747378752e-06, "center": true, "scale": true, "beta_initializer": {"class_name": "Zeros", "config": {}}, "gamma_initializer": {"class_name": "Ones", "config": {}}, "moving_mean_initializer": {"class_name": "Zeros", "config": {}}, "moving_variance_initializer": {"class_name": "Ones", "config": {}}, "beta_regularizer": null, "gamma_regularizer": null, "beta_constraint": null, "gamma_constraint": null}, "inbound_nodes": [[["LAYER_86", 0, 0, {}]]]}, {"name": "LAYER_88", "class_name": "ReLU", "config": {"name": "LAYER_88", "trainable": true, "max_value": 6.0, "negative_slope": 0.0, "threshold": 0.0}, "inbound_nodes": [[["LAYER_87", 0, 0, {}]]]}, {"name": "LAYER_89_pad", "class_name": "ZeroPadding2D", "config": {"name": "LAYER_89_pad", "trainable": true, "padding": [[1, 1], [1, 1]], "data_format": "channels_first"}, "inbound_nodes": [[["LAYER_88", 0, 0, {}]]]}, {"name": "LAYER_89", "class_name": "DepthwiseConv2D", "config": {"name": "LAYER_89", "trainable": true, "kernel_size": [3, 3], "strides": [1, 1], "padding": "valid", "data_format": "channels_first", "dilation_rate": [1, 1], "activation": "linear", "use_bias": false, "bias_initializer": {"class_name": "Zeros", "config": {}}, "bias_regularizer": null, "activity_regularizer": null, "bias_constraint": null, "depth_multiplier": 1, "depthwise_initializer": {"class_name": "VarianceScaling", "config": {"scale": 1.0, "mode": "fan_avg", "distribution": "uniform", "seed": null}}, "depthwise_regularizer": null, "depthwise_constraint": null}, "inbound_nodes": [[["LAYER_89_pad", 0, 0, {}]]]}, {"name": "LAYER_90", "class_name": "BatchNormalization", "config": {"name": "LAYER_90", "trainable": true, "axis": 1, "momentum": 0.8999999761581421, "epsilon": 9.999999747378752e-06, "center": true, "scale": true, "beta_initializer": {"class_name": "Zeros", "config": {}}, "gamma_initializer": {"class_name": "Ones", "config": {}}, "moving_mean_initializer": {"class_name": "Zeros", "config": {}}, "moving_variance_initializer": {"class_name": "Ones", "config": {}}, "beta_regularizer": null, "gamma_regularizer": null, "beta_constraint": null, "gamma_constraint": null}, "inbound_nodes": [[["LAYER_89", 0, 0, {}]]]}, {"name": "LAYER_91", "class_name": "ReLU", "config": {"name": "LAYER_91", "trainable": true, "max_value": 6.0, "negative_slope": 0.0, "threshold": 0.0}, "inbound_nodes": [[["LAYER_90", 0, 0, {}]]]}, {"name": "LAYER_92", "class_name": "Conv2D", "config": {"name": "LAYER_92", "trainable": true, "filters": 96, "kernel_size": [1, 1], "strides": [1, 1], "padding": "valid", "data_format": "channels_first", "dilation_rate": [1, 1], "activation": "linear", "use_bias": false, "kernel_initializer": {"class_name": "Zeros", "config": {}}, "bias_initializer": {"class_name": "Zeros", "config": {}}, "kernel_regularizer": null, "bias_regularizer": null, "activity_regularizer": null, "kernel_constraint": null, "bias_constraint": null}, "inbound_nodes": [[["LAYER_91", 0, 0, {}]]]}, {"name": "LAYER_93", "class_name": "BatchNormalization", "config": {"name": "LAYER_93", "trainable": true, "axis": 1, "momentum": 0.8999999761581421, "epsilon": 9.999999747378752e-06, "center": true, "scale": true, "beta_initializer": {"class_name": "Zeros", "config": {}}, "gamma_initializer": {"class_name": "Ones", "config": {}}, "moving_mean_initializer": {"class_name": "Zeros", "config": {}}, "moving_variance_initializer": {"class_name": "Ones", "config": {}}, "beta_regularizer": null, "gamma_regularizer": null, "beta_constraint": null, "gamma_constraint": null}, "inbound_nodes": [[["LAYER_92", 0, 0, {}]]]}, {"name": "LAYER_94", "class_name": "Conv2D", "config": {"name": "LAYER_94", "trainable": true, "filters": 576, "kernel_size": [1, 1], "strides": [1, 1], "padding": "valid", "data_format": "channels_first", "dilation_rate": [1, 1], "activation": "linear", "use_bias": false, "kernel_initializer": {"class_name": "Zeros", "config": {}}, "bias_initializer": {"class_name": "Zeros", "config": {}}, "kernel_regularizer": null, "bias_regularizer": null, "activity_regularizer": null, "kernel_constraint": null, "bias_constraint": null}, "inbound_nodes": [[["LAYER_93", 0, 0, {}]]]}, {"name": "LAYER_95", "class_name": "BatchNormalization", "config": {"name": "LAYER_95", "trainable": true, "axis": 1, "momentum": 0.8999999761581421, "epsilon": 9.999999747378752e-06, "center": true, "scale": true, "beta_initializer": {"class_name": "Zeros", "config": {}}, "gamma_initializer": {"class_name": "Ones", "config": {}}, "moving_mean_initializer": {"class_name": "Zeros", "config": {}}, "moving_variance_initializer": {"class_name": "Ones", "config": {}}, "beta_regularizer": null, "gamma_regularizer": null, "beta_constraint": null, "gamma_constraint": null}, "inbound_nodes": [[["LAYER_94", 0, 0, {}]]]}, {"name": "LAYER_96", "class_name": "ReLU", "config": {"name": "LAYER_96", "trainable": true, "max_value": 6.0, "negative_slope": 0.0, "threshold": 0.0}, "inbound_nodes": [[["LAYER_95", 0, 0, {}]]]}, {"name": "LAYER_97_pad", "class_name": "ZeroPadding2D", "config": {"name": "LAYER_97_pad", "trainable": true, "padding": [[1, 1], [1, 1]], "data_format": "channels_first"}, "inbound_nodes": [[["LAYER_96", 0, 0, {}]]]}, {"name": "LAYER_97", "class_name": "DepthwiseConv2D", "config": {"name": "LAYER_97", "trainable": true, "kernel_size": [3, 3], "strides": [1, 1], "padding": "valid", "data_format": "channels_first", "dilation_rate": [1, 1], "activation": "linear", "use_bias": false, "bias_initializer": {"class_name": "Zeros", "config": {}}, "bias_regularizer": null, "activity_regularizer": null, "bias_constraint": null, "depth_multiplier": 1, "depthwise_initializer": {"class_name": "VarianceScaling", "config": {"scale": 1.0, "mode": "fan_avg", "distribution": "uniform", "seed": null}}, "depthwise_regularizer": null, "depthwise_constraint": null}, "inbound_nodes": [[["LAYER_97_pad", 0, 0, {}]]]}, {"name": "LAYER_98", "class_name": "BatchNormalization", "config": {"name": "LAYER_98", "trainable": true, "axis": 1, "momentum": 0.8999999761581421, "epsilon": 9.999999747378752e-06, "center": true, "scale": true, "beta_initializer": {"class_name": "Zeros", "config": {}}, "gamma_initializer": {"class_name": "Ones", "config": {}}, "moving_mean_initializer": {"class_name": "Zeros", "config": {}}, "moving_variance_initializer": {"class_name": "Ones", "config": {}}, "beta_regularizer": null, "gamma_regularizer": null, "beta_constraint": null, "gamma_constraint": null}, "inbound_nodes": [[["LAYER_97", 0, 0, {}]]]}, {"name": "LAYER_99", "class_name": "ReLU", "config": {"name": "LAYER_99", "trainable": true, "max_value": 6.0, "negative_slope": 0.0, "threshold": 0.0}, "inbound_nodes": [[["LAYER_98", 0, 0, {}]]]}, {"name": "LAYER_100", "class_name": "Conv2D", "config": {"name": "LAYER_100", "trainable": true, "filters": 96, "kernel_size": [1, 1], "strides": [1, 1], "padding": "valid", "data_format": "channels_first", "dilation_rate": [1, 1], "activation": "linear", "use_bias": false, "kernel_initializer": {"class_name": "Zeros", "config": {}}, "bias_initializer": {"class_name": "Zeros", "config": {}}, "kernel_regularizer": null, "bias_regularizer": null, "activity_regularizer": null, "kernel_constraint": null, "bias_constraint": null}, "inbound_nodes": [[["LAYER_99", 0, 0, {}]]]}, {"name": "LAYER_101", "class_name": "BatchNormalization", "config": {"name": "LAYER_101", "trainable": true, "axis": 1, "momentum": 0.8999999761581421, "epsilon": 9.999999747378752e-06, "center": true, "scale": true, "beta_initializer": {"class_name": "Zeros", "config": {}}, "gamma_initializer": {"class_name": "Ones", "config": {}}, "moving_mean_initializer": {"class_name": "Zeros", "config": {}}, "moving_variance_initializer": {"class_name": "Ones", "config": {}}, "beta_regularizer": null, "gamma_regularizer": null, "beta_constraint": null, "gamma_constraint": null}, "inbound_nodes": [[["LAYER_100", 0, 0, {}]]]}, {"name": "LAYER_102", "class_name": "Add", "config": {"name": "LAYER_102", "trainable": true}, "inbound_nodes": [[["LAYER_93", 0, 0, {}], ["LAYER_101", 0, 0, {}]]]}, {"name": "LAYER_103", "class_name": "Conv2D", "config": {"name": "LAYER_103", "trainable": true, "filters": 576, "kernel_size": [1, 1], "strides": [1, 1], "padding": "valid", "data_format": "channels_first", "dilation_rate": [1, 1], "activation": "linear", "use_bias": false, "kernel_initializer": {"class_name": "Zeros", "config": {}}, "bias_initializer": {"class_name": "Zeros", "config": {}}, "kernel_regularizer": null, "bias_regularizer": null, "activity_regularizer": null, "kernel_constraint": null, "bias_constraint": null}, "inbound_nodes": [[["LAYER_102", 0, 0, {}]]]}, {"name": "LAYER_104", "class_name": "BatchNormalization", "config": {"name": "LAYER_104", "trainable": true, "axis": 1, "momentum": 0.8999999761581421, "epsilon": 9.999999747378752e-06, "center": true, "scale": true, "beta_initializer": {"class_name": "Zeros", "config": {}}, "gamma_initializer": {"class_name": "Ones", "config": {}}, "moving_mean_initializer": {"class_name": "Zeros", "config": {}}, "moving_variance_initializer": {"class_name": "Ones", "config": {}}, "beta_regularizer": null, "gamma_regularizer": null, "beta_constraint": null, "gamma_constraint": null}, "inbound_nodes": [[["LAYER_103", 0, 0, {}]]]}, {"name": "LAYER_105", "class_name": "ReLU", "config": {"name": "LAYER_105", "trainable": true, "max_value": 6.0, "negative_slope": 0.0, "threshold": 0.0}, "inbound_nodes": [[["LAYER_104", 0, 0, {}]]]}, {"name": "LAYER_106_pad", "class_name": "ZeroPadding2D", "config": {"name": "LAYER_106_pad", "trainable": true, "padding": [[1, 1], [1, 1]], "data_format": "channels_first"}, "inbound_nodes": [[["LAYER_105", 0, 0, {}]]]}, {"name": "LAYER_106", "class_name": "DepthwiseConv2D", "config": {"name": "LAYER_106", "trainable": true, "kernel_size": [3, 3], "strides": [1, 1], "padding": "valid", "data_format": "channels_first", "dilation_rate": [1, 1], "activation": "linear", "use_bias": false, "bias_initializer": {"class_name": "Zeros", "config": {}}, "bias_regularizer": null, "activity_regularizer": null, "bias_constraint": null, "depth_multiplier": 1, "depthwise_initializer": {"class_name": "VarianceScaling", "config": {"scale": 1.0, "mode": "fan_avg", "distribution": "uniform", "seed": null}}, "depthwise_regularizer": null, "depthwise_constraint": null}, "inbound_nodes": [[["LAYER_106_pad", 0, 0, {}]]]}, {"name": "LAYER_107", "class_name": "BatchNormalization", "config": {"name": "LAYER_107", "trainable": true, "axis": 1, "momentum": 0.8999999761581421, "epsilon": 9.999999747378752e-06, "center": true, "scale": true, "beta_initializer": {"class_name": "Zeros", "config": {}}, "gamma_initializer": {"class_name": "Ones", "config": {}}, "moving_mean_initializer": {"class_name": "Zeros", "config": {}}, "moving_variance_initializer": {"class_name": "Ones", "config": {}}, "beta_regularizer": null, "gamma_regularizer": null, "beta_constraint": null, "gamma_constraint": null}, "inbound_nodes": [[["LAYER_106", 0, 0, {}]]]}, {"name": "LAYER_108", "class_name": "ReLU", "config": {"name": "LAYER_108", "trainable": true, "max_value": 6.0, "negative_slope": 0.0, "threshold": 0.0}, "inbound_nodes": [[["LAYER_107", 0, 0, {}]]]}, {"name": "LAYER_109", "class_name": "Conv2D", "config": {"name": "LAYER_109", "trainable": true, "filters": 96, "kernel_size": [1, 1], "strides": [1, 1], "padding": "valid", "data_format": "channels_first", "dilation_rate": [1, 1], "activation": "linear", "use_bias": false, "kernel_initializer": {"class_name": "Zeros", "config": {}}, "bias_initializer": {"class_name": "Zeros", "config": {}}, "kernel_regularizer": null, "bias_regularizer": null, "activity_regularizer": null, "kernel_constraint": null, "bias_constraint": null}, "inbound_nodes": [[["LAYER_108", 0, 0, {}]]]}, {"name": "LAYER_110", "class_name": "BatchNormalization", "config": {"name": "LAYER_110", "trainable": true, "axis": 1, "momentum": 0.8999999761581421, "epsilon": 9.999999747378752e-06, "center": true, "scale": true, "beta_initializer": {"class_name": "Zeros", "config": {}}, "gamma_initializer": {"class_name": "Ones", "config": {}}, "moving_mean_initializer": {"class_name": "Zeros", "config": {}}, "moving_variance_initializer": {"class_name": "Ones", "config": {}}, "beta_regularizer": null, "gamma_regularizer": null, "beta_constraint": null, "gamma_constraint": null}, "inbound_nodes": [[["LAYER_109", 0, 0, {}]]]}, {"name": "LAYER_111", "class_name": "Add", "config": {"name": "LAYER_111", "trainable": true}, "inbound_nodes": [[["LAYER_102", 0, 0, {}], ["LAYER_110", 0, 0, {}]]]}, {"name": "LAYER_112", "class_name": "Conv2D", "config": {"name": "LAYER_112", "trainable": true, "filters": 576, "kernel_size": [1, 1], "strides": [1, 1], "padding": "valid", "data_format": "channels_first", "dilation_rate": [1, 1], "activation": "linear", "use_bias": false, "kernel_initializer": {"class_name": "Zeros", "config": {}}, "bias_initializer": {"class_name": "Zeros", "config": {}}, "kernel_regularizer": null, "bias_regularizer": null, "activity_regularizer": null, "kernel_constraint": null, "bias_constraint": null}, "inbound_nodes": [[["LAYER_111", 0, 0, {}]]]}, {"name": "LAYER_113", "class_name": "BatchNormalization", "config": {"name": "LAYER_113", "trainable": true, "axis": 1, "momentum": 0.8999999761581421, "epsilon": 9.999999747378752e-06, "center": true, "scale": true, "beta_initializer": {"class_name": "Zeros", "config": {}}, "gamma_initializer": {"class_name": "Ones", "config": {}}, "moving_mean_initializer": {"class_name": "Zeros", "config": {}}, "moving_variance_initializer": {"class_name": "Ones", "config": {}}, "beta_regularizer": null, "gamma_regularizer": null, "beta_constraint": null, "gamma_constraint": null}, "inbound_nodes": [[["LAYER_112", 0, 0, {}]]]}, {"name": "LAYER_114", "class_name": "ReLU", "config": {"name": "LAYER_114", "trainable": true, "max_value": 6.0, "negative_slope": 0.0, "threshold": 0.0}, "inbound_nodes": [[["LAYER_113", 0, 0, {}]]]}, {"name": "LAYER_115_pad", "class_name": "ZeroPadding2D", "config": {"name": "LAYER_115_pad", "trainable": true, "padding": [[1, 1], [1, 1]], "data_format": "channels_first"}, "inbound_nodes": [[["LAYER_114", 0, 0, {}]]]}, {"name": "LAYER_115", "class_name": "DepthwiseConv2D", "config": {"name": "LAYER_115", "trainable": true, "kernel_size": [3, 3], "strides": [2, 2], "padding": "valid", "data_format": "channels_first", "dilation_rate": [1, 1], "activation": "linear", "use_bias": false, "bias_initializer": {"class_name": "Zeros", "config": {}}, "bias_regularizer": null, "activity_regularizer": null, "bias_constraint": null, "depth_multiplier": 1, "depthwise_initializer": {"class_name": "VarianceScaling", "config": {"scale": 1.0, "mode": "fan_avg", "distribution": "uniform", "seed": null}}, "depthwise_regularizer": null, "depthwise_constraint": null}, "inbound_nodes": [[["LAYER_115_pad", 0, 0, {}]]]}, {"name": "LAYER_116", "class_name": "BatchNormalization", "config": {"name": "LAYER_116", "trainable": true, "axis": 1, "momentum": 0.8999999761581421, "epsilon": 9.999999747378752e-06, "center": true, "scale": true, "beta_initializer": {"class_name": "Zeros", "config": {}}, "gamma_initializer": {"class_name": "Ones", "config": {}}, "moving_mean_initializer": {"class_name": "Zeros", "config": {}}, "moving_variance_initializer": {"class_name": "Ones", "config": {}}, "beta_regularizer": null, "gamma_regularizer": null, "beta_constraint": null, "gamma_constraint": null}, "inbound_nodes": [[["LAYER_115", 0, 0, {}]]]}, {"name": "LAYER_117", "class_name": "ReLU", "config": {"name": "LAYER_117", "trainable": true, "max_value": 6.0, "negative_slope": 0.0, "threshold": 0.0}, "inbound_nodes": [[["LAYER_116", 0, 0, {}]]]}, {"name": "LAYER_118", "class_name": "Conv2D", "config": {"name": "LAYER_118", "trainable": true, "filters": 160, "kernel_size": [1, 1], "strides": [1, 1], "padding": "valid", "data_format": "channels_first", "dilation_rate": [1, 1], "activation": "linear", "use_bias": false, "kernel_initializer": {"class_name": "Zeros", "config": {}}, "bias_initializer": {"class_name": "Zeros", "config": {}}, "kernel_regularizer": null, "bias_regularizer": null, "activity_regularizer": null, "kernel_constraint": null, "bias_constraint": null}, "inbound_nodes": [[["LAYER_117", 0, 0, {}]]]}, {"name": "LAYER_119", "class_name": "BatchNormalization", "config": {"name": "LAYER_119", "trainable": true, "axis": 1, "momentum": 0.8999999761581421, "epsilon": 9.999999747378752e-06, "center": true, "scale": true, "beta_initializer": {"class_name": "Zeros", "config": {}}, "gamma_initializer": {"class_name": "Ones", "config": {}}, "moving_mean_initializer": {"class_name": "Zeros", "config": {}}, "moving_variance_initializer": {"class_name": "Ones", "config": {}}, "beta_regularizer": null, "gamma_regularizer": null, "beta_constraint": null, "gamma_constraint": null}, "inbound_nodes": [[["LAYER_118", 0, 0, {}]]]}, {"name": "LAYER_120", "class_name": "Conv2D", "config": {"name": "LAYER_120", "trainable": true, "filters": 960, "kernel_size": [1, 1], "strides": [1, 1], "padding": "valid", "data_format": "channels_first", "dilation_rate": [1, 1], "activation": "linear", "use_bias": false, "kernel_initializer": {"class_name": "Zeros", "config": {}}, "bias_initializer": {"class_name": "Zeros", "config": {}}, "kernel_regularizer": null, "bias_regularizer": null, "activity_regularizer": null, "kernel_constraint": null, "bias_constraint": null}, "inbound_nodes": [[["LAYER_119", 0, 0, {}]]]}, {"name": "LAYER_121", "class_name": "BatchNormalization", "config": {"name": "LAYER_121", "trainable": true, "axis": 1, "momentum": 0.8999999761581421, "epsilon": 9.999999747378752e-06, "center": true, "scale": true, "beta_initializer": {"class_name": "Zeros", "config": {}}, "gamma_initializer": {"class_name": "Ones", "config": {}}, "moving_mean_initializer": {"class_name": "Zeros", "config": {}}, "moving_variance_initializer": {"class_name": "Ones", "config": {}}, "beta_regularizer": null, "gamma_regularizer": null, "beta_constraint": null, "gamma_constraint": null}, "inbound_nodes": [[["LAYER_120", 0, 0, {}]]]}, {"name": "LAYER_122", "class_name": "ReLU", "config": {"name": "LAYER_122", "trainable": true, "max_value": 6.0, "negative_slope": 0.0, "threshold": 0.0}, "inbound_nodes": [[["LAYER_121", 0, 0, {}]]]}, {"name": "LAYER_123_pad", "class_name": "ZeroPadding2D", "config": {"name": "LAYER_123_pad", "trainable": true, "padding": [[1, 1], [1, 1]], "data_format": "channels_first"}, "inbound_nodes": [[["LAYER_122", 0, 0, {}]]]}, {"name": "LAYER_123", "class_name": "DepthwiseConv2D", "config": {"name": "LAYER_123", "trainable": true, "kernel_size": [3, 3], "strides": [1, 1], "padding": "valid", "data_format": "channels_first", "dilation_rate": [1, 1], "activation": "linear", "use_bias": false, "bias_initializer": {"class_name": "Zeros", "config": {}}, "bias_regularizer": null, "activity_regularizer": null, "bias_constraint": null, "depth_multiplier": 1, "depthwise_initializer": {"class_name": "VarianceScaling", "config": {"scale": 1.0, "mode": "fan_avg", "distribution": "uniform", "seed": null}}, "depthwise_regularizer": null, "depthwise_constraint": null}, "inbound_nodes": [[["LAYER_123_pad", 0, 0, {}]]]}, {"name": "LAYER_124", "class_name": "BatchNormalization", "config": {"name": "LAYER_124", "trainable": true, "axis": 1, "momentum": 0.8999999761581421, "epsilon": 9.999999747378752e-06, "center": true, "scale": true, "beta_initializer": {"class_name": "Zeros", "config": {}}, "gamma_initializer": {"class_name": "Ones", "config": {}}, "moving_mean_initializer": {"class_name": "Zeros", "config": {}}, "moving_variance_initializer": {"class_name": "Ones", "config": {}}, "beta_regularizer": null, "gamma_regularizer": null, "beta_constraint": null, "gamma_constraint": null}, "inbound_nodes": [[["LAYER_123", 0, 0, {}]]]}, {"name": "LAYER_125", "class_name": "ReLU", "config": {"name": "LAYER_125", "trainable": true, "max_value": 6.0, "negative_slope": 0.0, "threshold": 0.0}, "inbound_nodes": [[["LAYER_124", 0, 0, {}]]]}, {"name": "LAYER_126", "class_name": "Conv2D", "config": {"name": "LAYER_126", "trainable": true, "filters": 160, "kernel_size": [1, 1], "strides": [1, 1], "padding": "valid", "data_format": "channels_first", "dilation_rate": [1, 1], "activation": "linear", "use_bias": false, "kernel_initializer": {"class_name": "Zeros", "config": {}}, "bias_initializer": {"class_name": "Zeros", "config": {}}, "kernel_regularizer": null, "bias_regularizer": null, "activity_regularizer": null, "kernel_constraint": null, "bias_constraint": null}, "inbound_nodes": [[["LAYER_125", 0, 0, {}]]]}, {"name": "LAYER_127", "class_name": "BatchNormalization", "config": {"name": "LAYER_127", "trainable": true, "axis": 1, "momentum": 0.8999999761581421, "epsilon": 9.999999747378752e-06, "center": true, "scale": true, "beta_initializer": {"class_name": "Zeros", "config": {}}, "gamma_initializer": {"class_name": "Ones", "config": {}}, "moving_mean_initializer": {"class_name": "Zeros", "config": {}}, "moving_variance_initializer": {"class_name": "Ones", "config": {}}, "beta_regularizer": null, "gamma_regularizer": null, "beta_constraint": null, "gamma_constraint": null}, "inbound_nodes": [[["LAYER_126", 0, 0, {}]]]}, {"name": "LAYER_128", "class_name": "Add", "config": {"name": "LAYER_128", "trainable": true}, "inbound_nodes": [[["LAYER_119", 0, 0, {}], ["LAYER_127", 0, 0, {}]]]}, {"name": "LAYER_129", "class_name": "Conv2D", "config": {"name": "LAYER_129", "trainable": true, "filters": 960, "kernel_size": [1, 1], "strides": [1, 1], "padding": "valid", "data_format": "channels_first", "dilation_rate": [1, 1], "activation": "linear", "use_bias": false, "kernel_initializer": {"class_name": "Zeros", "config": {}}, "bias_initializer": {"class_name": "Zeros", "config": {}}, "kernel_regularizer": null, "bias_regularizer": null, "activity_regularizer": null, "kernel_constraint": null, "bias_constraint": null}, "inbound_nodes": [[["LAYER_128", 0, 0, {}]]]}, {"name": "LAYER_130", "class_name": "BatchNormalization", "config": {"name": "LAYER_130", "trainable": true, "axis": 1, "momentum": 0.8999999761581421, "epsilon": 9.999999747378752e-06, "center": true, "scale": true, "beta_initializer": {"class_name": "Zeros", "config": {}}, "gamma_initializer": {"class_name": "Ones", "config": {}}, "moving_mean_initializer": {"class_name": "Zeros", "config": {}}, "moving_variance_initializer": {"class_name": "Ones", "config": {}}, "beta_regularizer": null, "gamma_regularizer": null, "beta_constraint": null, "gamma_constraint": null}, "inbound_nodes": [[["LAYER_129", 0, 0, {}]]]}, {"name": "LAYER_131", "class_name": "ReLU", "config": {"name": "LAYER_131", "trainable": true, "max_value": 6.0, "negative_slope": 0.0, "threshold": 0.0}, "inbound_nodes": [[["LAYER_130", 0, 0, {}]]]}, {"name": "LAYER_132_pad", "class_name": "ZeroPadding2D", "config": {"name": "LAYER_132_pad", "trainable": true, "padding": [[1, 1], [1, 1]], "data_format": "channels_first"}, "inbound_nodes": [[["LAYER_131", 0, 0, {}]]]}, {"name": "LAYER_132", "class_name": "DepthwiseConv2D", "config": {"name": "LAYER_132", "trainable": true, "kernel_size": [3, 3], "strides": [1, 1], "padding": "valid", "data_format": "channels_first", "dilation_rate": [1, 1], "activation": "linear", "use_bias": false, "bias_initializer": {"class_name": "Zeros", "config": {}}, "bias_regularizer": null, "activity_regularizer": null, "bias_constraint": null, "depth_multiplier": 1, "depthwise_initializer": {"class_name": "VarianceScaling", "config": {"scale": 1.0, "mode": "fan_avg", "distribution": "uniform", "seed": null}}, "depthwise_regularizer": null, "depthwise_constraint": null}, "inbound_nodes": [[["LAYER_132_pad", 0, 0, {}]]]}, {"name": "LAYER_133", "class_name": "BatchNormalization", "config": {"name": "LAYER_133", "trainable": true, "axis": 1, "momentum": 0.8999999761581421, "epsilon": 9.999999747378752e-06, "center": true, "scale": true, "beta_initializer": {"class_name": "Zeros", "config": {}}, "gamma_initializer": {"class_name": "Ones", "config": {}}, "moving_mean_initializer": {"class_name": "Zeros", "config": {}}, "moving_variance_initializer": {"class_name": "Ones", "config": {}}, "beta_regularizer": null, "gamma_regularizer": null, "beta_constraint": null, "gamma_constraint": null}, "inbound_nodes": [[["LAYER_132", 0, 0, {}]]]}, {"name": "LAYER_134", "class_name": "ReLU", "config": {"name": "LAYER_134", "trainable": true, "max_value": 6.0, "negative_slope": 0.0, "threshold": 0.0}, "inbound_nodes": [[["LAYER_133", 0, 0, {}]]]}, {"name": "LAYER_135", "class_name": "Conv2D", "config": {"name": "LAYER_135", "trainable": true, "filters": 160, "kernel_size": [1, 1], "strides": [1, 1], "padding": "valid", "data_format": "channels_first", "dilation_rate": [1, 1], "activation": "linear", "use_bias": false, "kernel_initializer": {"class_name": "Zeros", "config": {}}, "bias_initializer": {"class_name": "Zeros", "config": {}}, "kernel_regularizer": null, "bias_regularizer": null, "activity_regularizer": null, "kernel_constraint": null, "bias_constraint": null}, "inbound_nodes": [[["LAYER_134", 0, 0, {}]]]}, {"name": "LAYER_136", "class_name": "BatchNormalization", "config": {"name": "LAYER_136", "trainable": true, "axis": 1, "momentum": 0.8999999761581421, "epsilon": 9.999999747378752e-06, "center": true, "scale": true, "beta_initializer": {"class_name": "Zeros", "config": {}}, "gamma_initializer": {"class_name": "Ones", "config": {}}, "moving_mean_initializer": {"class_name": "Zeros", "config": {}}, "moving_variance_initializer": {"class_name": "Ones", "config": {}}, "beta_regularizer": null, "gamma_regularizer": null, "beta_constraint": null, "gamma_constraint": null}, "inbound_nodes": [[["LAYER_135", 0, 0, {}]]]}, {"name": "LAYER_137", "class_name": "Add", "config": {"name": "LAYER_137", "trainable": true}, "inbound_nodes": [[["LAYER_128", 0, 0, {}], ["LAYER_136", 0, 0, {}]]]}, {"name": "LAYER_138", "class_name": "Conv2D", "config": {"name": "LAYER_138", "trainable": true, "filters": 960, "kernel_size": [1, 1], "strides": [1, 1], "padding": "valid", "data_format": "channels_first", "dilation_rate": [1, 1], "activation": "linear", "use_bias": false, "kernel_initializer": {"class_name": "Zeros", "config": {}}, "bias_initializer": {"class_name": "Zeros", "config": {}}, "kernel_regularizer": null, "bias_regularizer": null, "activity_regularizer": null, "kernel_constraint": null, "bias_constraint": null}, "inbound_nodes": [[["LAYER_137", 0, 0, {}]]]}, {"name": "LAYER_139", "class_name": "BatchNormalization", "config": {"name": "LAYER_139", "trainable": true, "axis": 1, "momentum": 0.8999999761581421, "epsilon": 9.999999747378752e-06, "center": true, "scale": true, "beta_initializer": {"class_name": "Zeros", "config": {}}, "gamma_initializer": {"class_name": "Ones", "config": {}}, "moving_mean_initializer": {"class_name": "Zeros", "config": {}}, "moving_variance_initializer": {"class_name": "Ones", "config": {}}, "beta_regularizer": null, "gamma_regularizer": null, "beta_constraint": null, "gamma_constraint": null}, "inbound_nodes": [[["LAYER_138", 0, 0, {}]]]}, {"name": "LAYER_140", "class_name": "ReLU", "config": {"name": "LAYER_140", "trainable": true, "max_value": 6.0, "negative_slope": 0.0, "threshold": 0.0}, "inbound_nodes": [[["LAYER_139", 0, 0, {}]]]}, {"name": "LAYER_141_pad", "class_name": "ZeroPadding2D", "config": {"name": "LAYER_141_pad", "trainable": true, "padding": [[1, 1], [1, 1]], "data_format": "channels_first"}, "inbound_nodes": [[["LAYER_140", 0, 0, {}]]]}, {"name": "LAYER_141", "class_name": "DepthwiseConv2D", "config": {"name": "LAYER_141", "trainable": true, "kernel_size": [3, 3], "strides": [1, 1], "padding": "valid", "data_format": "channels_first", "dilation_rate": [1, 1], "activation": "linear", "use_bias": false, "bias_initializer": {"class_name": "Zeros", "config": {}}, "bias_regularizer": null, "activity_regularizer": null, "bias_constraint": null, "depth_multiplier": 1, "depthwise_initializer": {"class_name": "VarianceScaling", "config": {"scale": 1.0, "mode": "fan_avg", "distribution": "uniform", "seed": null}}, "depthwise_regularizer": null, "depthwise_constraint": null}, "inbound_nodes": [[["LAYER_141_pad", 0, 0, {}]]]}, {"name": "LAYER_142", "class_name": "BatchNormalization", "config": {"name": "LAYER_142", "trainable": true, "axis": 1, "momentum": 0.8999999761581421, "epsilon": 9.999999747378752e-06, "center": true, "scale": true, "beta_initializer": {"class_name": "Zeros", "config": {}}, "gamma_initializer": {"class_name": "Ones", "config": {}}, "moving_mean_initializer": {"class_name": "Zeros", "config": {}}, "moving_variance_initializer": {"class_name": "Ones", "config": {}}, "beta_regularizer": null, "gamma_regularizer": null, "beta_constraint": null, "gamma_constraint": null}, "inbound_nodes": [[["LAYER_141", 0, 0, {}]]]}, {"name": "LAYER_143", "class_name": "ReLU", "config": {"name": "LAYER_143", "trainable": true, "max_value": 6.0, "negative_slope": 0.0, "threshold": 0.0}, "inbound_nodes": [[["LAYER_142", 0, 0, {}]]]}, {"name": "LAYER_144", "class_name": "Conv2D", "config": {"name": "LAYER_144", "trainable": true, "filters": 320, "kernel_size": [1, 1], "strides": [1, 1], "padding": "valid", "data_format": "channels_first", "dilation_rate": [1, 1], "activation": "linear", "use_bias": false, "kernel_initializer": {"class_name": "Zeros", "config": {}}, "bias_initializer": {"class_name": "Zeros", "config": {}}, "kernel_regularizer": null, "bias_regularizer": null, "activity_regularizer": null, "kernel_constraint": null, "bias_constraint": null}, "inbound_nodes": [[["LAYER_143", 0, 0, {}]]]}, {"name": "LAYER_145", "class_name": "BatchNormalization", "config": {"name": "LAYER_145", "trainable": true, "axis": 1, "momentum": 0.8999999761581421, "epsilon": 9.999999747378752e-06, "center": true, "scale": true, "beta_initializer": {"class_name": "Zeros", "config": {}}, "gamma_initializer": {"class_name": "Ones", "config": {}}, "moving_mean_initializer": {"class_name": "Zeros", "config": {}}, "moving_variance_initializer": {"class_name": "Ones", "config": {}}, "beta_regularizer": null, "gamma_regularizer": null, "beta_constraint": null, "gamma_constraint": null}, "inbound_nodes": [[["LAYER_144", 0, 0, {}]]]}, {"name": "LAYER_146", "class_name": "Conv2D", "config": {"name": "LAYER_146", "trainable": true, "filters": 1280, "kernel_size": [1, 1], "strides": [1, 1], "padding": "valid", "data_format": "channels_first", "dilation_rate": [1, 1], "activation": "linear", "use_bias": false, "kernel_initializer": {"class_name": "Zeros", "config": {}}, "bias_initializer": {"class_name": "Zeros", "config": {}}, "kernel_regularizer": null, "bias_regularizer": null, "activity_regularizer": null, "kernel_constraint": null, "bias_constraint": null}, "inbound_nodes": [[["LAYER_145", 0, 0, {}]]]}, {"name": "LAYER_147", "class_name": "BatchNormalization", "config": {"name": "LAYER_147", "trainable": true, "axis": 1, "momentum": 0.8999999761581421, "epsilon": 9.999999747378752e-06, "center": true, "scale": true, "beta_initializer": {"class_name": "Zeros", "config": {}}, "gamma_initializer": {"class_name": "Ones", "config": {}}, "moving_mean_initializer": {"class_name": "Zeros", "config": {}}, "moving_variance_initializer": {"class_name": "Ones", "config": {}}, "beta_regularizer": null, "gamma_regularizer": null, "beta_constraint": null, "gamma_constraint": null}, "inbound_nodes": [[["LAYER_146", 0, 0, {}]]]}, {"name": "LAYER_148", "class_name": "ReLU", "config": {"name": "LAYER_148", "trainable": true, "max_value": 6.0, "negative_slope": 0.0, "threshold": 0.0}, "inbound_nodes": [[["LAYER_147", 0, 0, {}]]]}, {"name": "LAYER_149", "class_name": "ZeroPadding2D", "config": {"name": "LAYER_149", "trainable": true, "padding": [[0, 0], [0, 0]], "data_format": "channels_first"}, "inbound_nodes": [[["LAYER_148", 0, 0, {}]]]}, {"name": "LAYER_150", "class_name": "AveragePooling2D", "config": {"name": "LAYER_150", "trainable": true, "pool_size": [7, 7], "padding": "valid", "strides": [1, 1], "data_format": "channels_first"}, "inbound_nodes": [[["LAYER_149", 0, 0, {}]]]}, {"name": "LAYER_151", "class_name": "Reshape", "config": {"name": "LAYER_151", "trainable": true, "target_shape": [-1, 1280]}, "inbound_nodes": [[["LAYER_150", 0, 0, {}]]]}, {"name": "LAYER_152", "class_name": "Dense", "config": {"name": "LAYER_152", "trainable": true, "units": 10, "activation": "linear", "use_bias": true, "kernel_initializer": {"class_name": "Zeros", "config": {}}, "bias_initializer": {"class_name": "Zeros", "config": {}}, "kernel_regularizer": null, "bias_regularizer": null, "activity_regularizer": null, "kernel_constraint": null, "bias_constraint": null}, "inbound_nodes": [[["LAYER_151", 0, 0, {}]]]}], "input_layers": [["input_0", 0, 0]], "output_layers": [["LAYER_152", 0, 0]]}}}, "weightsManifest": [{"paths": ["group1-shard1of3.bin", "group1-shard2of3.bin", "group1-shard3of3.bin"], "weights": [{"name": "LAYER_0/kernel", "shape": [3, 3, 3, 32], "dtype": "float32"}, {"name": "LAYER_1/gamma", "shape": [32], "dtype": "float32"}, {"name": "LAYER_1/beta", "shape": [32], "dtype": "float32"}, {"name": "LAYER_1/moving_mean", "shape": [32], "dtype": "float32"}, {"name": "LAYER_1/moving_variance", "shape": [32], "dtype": "float32"}, {"name": "LAYER_100/kernel", "shape": [1, 1, 576, 96], "dtype": "float32"}, {"name": "LAYER_101/gamma", "shape": [96], "dtype": "float32"}, {"name": "LAYER_101/beta", "shape": [96], "dtype": "float32"}, {"name": "LAYER_101/moving_mean", "shape": [96], "dtype": "float32"}, {"name": "LAYER_101/moving_variance", "shape": [96], "dtype": "float32"}, {"name": "LAYER_103/kernel", "shape": [1, 1, 96, 576], "dtype": "float32"}, {"name": "LAYER_104/gamma", "shape": [576], "dtype": "float32"}, {"name": "LAYER_104/beta", "shape": [576], "dtype": "float32"}, {"name": "LAYER_104/moving_mean", "shape": [576], "dtype": "float32"}, {"name": "LAYER_104/moving_variance", "shape": [576], "dtype": "float32"}, {"name": "LAYER_106/depthwise_kernel", "shape": [3, 3, 576, 1], "dtype": "float32"}, {"name": "LAYER_107/gamma", "shape": [576], "dtype": "float32"}, {"name": "LAYER_107/beta", "shape": [576], "dtype": "float32"}, {"name": "LAYER_107/moving_mean", "shape": [576], "dtype": "float32"}, {"name": "LAYER_107/moving_variance", "shape": [576], "dtype": "float32"}, {"name": "LAYER_109/kernel", "shape": [1, 1, 576, 96], "dtype": "float32"}, {"name": "LAYER_11/depthwise_kernel", "shape": [3, 3, 96, 1], "dtype": "float32"}, {"name": "LAYER_110/gamma", "shape": [96], "dtype": "float32"}, {"name": "LAYER_110/beta", "shape": [96], "dtype": "float32"}, {"name": "LAYER_110/moving_mean", "shape": [96], "dtype": "float32"}, {"name": "LAYER_110/moving_variance", "shape": [96], "dtype": "float32"}, {"name": "LAYER_112/kernel", "shape": [1, 1, 96, 576], "dtype": "float32"}, {"name": "LAYER_113/gamma", "shape": [576], "dtype": "float32"}, {"name": "LAYER_113/beta", "shape": [576], "dtype": "float32"}, {"name": "LAYER_113/moving_mean", "shape": [576], "dtype": "float32"}, {"name": "LAYER_113/moving_variance", "shape": [576], "dtype": "float32"}, {"name": "LAYER_115/depthwise_kernel", "shape": [3, 3, 576, 1], "dtype": "float32"}, {"name": "LAYER_116/gamma", "shape": [576], "dtype": "float32"}, {"name": "LAYER_116/beta", "shape": [576], "dtype": "float32"}, {"name": "LAYER_116/moving_mean", "shape": [576], "dtype": "float32"}, {"name": "LAYER_116/moving_variance", "shape": [576], "dtype": "float32"}, {"name": "LAYER_118/kernel", "shape": [1, 1, 576, 160], "dtype": "float32"}, {"name": "LAYER_119/gamma", "shape": [160], "dtype": "float32"}, {"name": "LAYER_119/beta", "shape": [160], "dtype": "float32"}, {"name": "LAYER_119/moving_mean", "shape": [160], "dtype": "float32"}, {"name": "LAYER_119/moving_variance", "shape": [160], "dtype": "float32"}, {"name": "LAYER_12/gamma", "shape": [96], "dtype": "float32"}, {"name": "LAYER_12/beta", "shape": [96], "dtype": "float32"}, {"name": "LAYER_12/moving_mean", "shape": [96], "dtype": "float32"}, {"name": "LAYER_12/moving_variance", "shape": [96], "dtype": "float32"}, {"name": "LAYER_120/kernel", "shape": [1, 1, 160, 960], "dtype": "float32"}, {"name": "LAYER_121/gamma", "shape": [960], "dtype": "float32"}, {"name": "LAYER_121/beta", "shape": [960], "dtype": "float32"}, {"name": "LAYER_121/moving_mean", "shape": [960], "dtype": "float32"}, {"name": "LAYER_121/moving_variance", "shape": [960], "dtype": "float32"}, {"name": "LAYER_123/depthwise_kernel", "shape": [3, 3, 960, 1], "dtype": "float32"}, {"name": "LAYER_124/gamma", "shape": [960], "dtype": "float32"}, {"name": "LAYER_124/beta", "shape": [960], "dtype": "float32"}, {"name": "LAYER_124/moving_mean", "shape": [960], "dtype": "float32"}, {"name": "LAYER_124/moving_variance", "shape": [960], "dtype": "float32"}, {"name": "LAYER_126/kernel", "shape": [1, 1, 960, 160], "dtype": "float32"}, {"name": "LAYER_127/gamma", "shape": [160], "dtype": "float32"}, {"name": "LAYER_127/beta", "shape": [160], "dtype": "float32"}, {"name": "LAYER_127/moving_mean", "shape": [160], "dtype": "float32"}, {"name": "LAYER_127/moving_variance", "shape": [160], "dtype": "float32"}, {"name": "LAYER_129/kernel", "shape": [1, 1, 160, 960], "dtype": "float32"}, {"name": "LAYER_130/gamma", "shape": [960], "dtype": "float32"}, {"name": "LAYER_130/beta", "shape": [960], "dtype": "float32"}, {"name": "LAYER_130/moving_mean", "shape": [960], "dtype": "float32"}, {"name": "LAYER_130/moving_variance", "shape": [960], "dtype": "float32"}, {"name": "LAYER_132/depthwise_kernel", "shape": [3, 3, 960, 1], "dtype": "float32"}, {"name": "LAYER_133/gamma", "shape": [960], "dtype": "float32"}, {"name": "LAYER_133/beta", "shape": [960], "dtype": "float32"}, {"name": "LAYER_133/moving_mean", "shape": [960], "dtype": "float32"}, {"name": "LAYER_133/moving_variance", "shape": [960], "dtype": "float32"}, {"name": "LAYER_135/kernel", "shape": [1, 1, 960, 160], "dtype": "float32"}, {"name": "LAYER_136/gamma", "shape": [160], "dtype": "float32"}, {"name": "LAYER_136/beta", "shape": [160], "dtype": "float32"}, {"name": "LAYER_136/moving_mean", "shape": [160], "dtype": "float32"}, {"name": "LAYER_136/moving_variance", "shape": [160], "dtype": "float32"}, {"name": "LAYER_138/kernel", "shape": [1, 1, 160, 960], "dtype": "float32"}, {"name": "LAYER_139/gamma", "shape": [960], "dtype": "float32"}, {"name": "LAYER_139/beta", "shape": [960], "dtype": "float32"}, {"name": "LAYER_139/moving_mean", "shape": [960], "dtype": "float32"}, {"name": "LAYER_139/moving_variance", "shape": [960], "dtype": "float32"}, {"name": "LAYER_14/kernel", "shape": [1, 1, 96, 24], "dtype": "float32"}, {"name": "LAYER_141/depthwise_kernel", "shape": [3, 3, 960, 1], "dtype": "float32"}, {"name": "LAYER_142/gamma", "shape": [960], "dtype": "float32"}, {"name": "LAYER_142/beta", "shape": [960], "dtype": "float32"}, {"name": "LAYER_142/moving_mean", "shape": [960], "dtype": "float32"}, {"name": "LAYER_142/moving_variance", "shape": [960], "dtype": "float32"}, {"name": "LAYER_144/kernel", "shape": [1, 1, 960, 320], "dtype": "float32"}, {"name": "LAYER_145/gamma", "shape": [320], "dtype": "float32"}, {"name": "LAYER_145/beta", "shape": [320], "dtype": "float32"}, {"name": "LAYER_145/moving_mean", "shape": [320], "dtype": "float32"}, {"name": "LAYER_145/moving_variance", "shape": [320], "dtype": "float32"}, {"name": "LAYER_146/kernel", "shape": [1, 1, 320, 1280], "dtype": "float32"}, {"name": "LAYER_147/gamma", "shape": [1280], "dtype": "float32"}, {"name": "LAYER_147/beta", "shape": [1280], "dtype": "float32"}, {"name": "LAYER_147/moving_mean", "shape": [1280], "dtype": "float32"}, {"name": "LAYER_147/moving_variance", "shape": [1280], "dtype": "float32"}, {"name": "LAYER_15/gamma", "shape": [24], "dtype": "float32"}, {"name": "LAYER_15/beta", "shape": [24], "dtype": "float32"}, {"name": "LAYER_15/moving_mean", "shape": [24], "dtype": "float32"}, {"name": "LAYER_15/moving_variance", "shape": [24], "dtype": "float32"}, {"name": "LAYER_152/kernel", "shape": [1280, 10], "dtype": "float32"}, {"name": "LAYER_152/bias", "shape": [10], "dtype": "float32"}, {"name": "LAYER_16/kernel", "shape": [1, 1, 24, 144], "dtype": "float32"}, {"name": "LAYER_17/gamma", "shape": [144], "dtype": "float32"}, {"name": "LAYER_17/beta", "shape": [144], "dtype": "float32"}, {"name": "LAYER_17/moving_mean", "shape": [144], "dtype": "float32"}, {"name": "LAYER_17/moving_variance", "shape": [144], "dtype": "float32"}, {"name": "LAYER_19/depthwise_kernel", "shape": [3, 3, 144, 1], "dtype": "float32"}, {"name": "LAYER_20/gamma", "shape": [144], "dtype": "float32"}, {"name": "LAYER_20/beta", "shape": [144], "dtype": "float32"}, {"name": "LAYER_20/moving_mean", "shape": [144], "dtype": "float32"}, {"name": "LAYER_20/moving_variance", "shape": [144], "dtype": "float32"}, {"name": "LAYER_22/kernel", "shape": [1, 1, 144, 24], "dtype": "float32"}, {"name": "LAYER_23/gamma", "shape": [24], "dtype": "float32"}, {"name": "LAYER_23/beta", "shape": [24], "dtype": "float32"}, {"name": "LAYER_23/moving_mean", "shape": [24], "dtype": "float32"}, {"name": "LAYER_23/moving_variance", "shape": [24], "dtype": "float32"}, {"name": "LAYER_25/kernel", "shape": [1, 1, 24, 144], "dtype": "float32"}, {"name": "LAYER_26/gamma", "shape": [144], "dtype": "float32"}, {"name": "LAYER_26/beta", "shape": [144], "dtype": "float32"}, {"name": "LAYER_26/moving_mean", "shape": [144], "dtype": "float32"}, {"name": "LAYER_26/moving_variance", "shape": [144], "dtype": "float32"}, {"name": "LAYER_28/depthwise_kernel", "shape": [3, 3, 144, 1], "dtype": "float32"}, {"name": "LAYER_29/gamma", "shape": [144], "dtype": "float32"}, {"name": "LAYER_29/beta", "shape": [144], "dtype": "float32"}, {"name": "LAYER_29/moving_mean", "shape": [144], "dtype": "float32"}, {"name": "LAYER_29/moving_variance", "shape": [144], "dtype": "float32"}, {"name": "LAYER_3/depthwise_kernel", "shape": [3, 3, 32, 1], "dtype": "float32"}, {"name": "LAYER_31/kernel", "shape": [1, 1, 144, 32], "dtype": "float32"}, {"name": "LAYER_32/gamma", "shape": [32], "dtype": "float32"}, {"name": "LAYER_32/beta", "shape": [32], "dtype": "float32"}, {"name": "LAYER_32/moving_mean", "shape": [32], "dtype": "float32"}, {"name": "LAYER_32/moving_variance", "shape": [32], "dtype": "float32"}, {"name": "LAYER_33/kernel", "shape": [1, 1, 32, 192], "dtype": "float32"}, {"name": "LAYER_34/gamma", "shape": [192], "dtype": "float32"}, {"name": "LAYER_34/beta", "shape": [192], "dtype": "float32"}, {"name": "LAYER_34/moving_mean", "shape": [192], "dtype": "float32"}, {"name": "LAYER_34/moving_variance", "shape": [192], "dtype": "float32"}, {"name": "LAYER_36/depthwise_kernel", "shape": [3, 3, 192, 1], "dtype": "float32"}, {"name": "LAYER_37/gamma", "shape": [192], "dtype": "float32"}, {"name": "LAYER_37/beta", "shape": [192], "dtype": "float32"}, {"name": "LAYER_37/moving_mean", "shape": [192], "dtype": "float32"}, {"name": "LAYER_37/moving_variance", "shape": [192], "dtype": "float32"}, {"name": "LAYER_39/kernel", "shape": [1, 1, 192, 32], "dtype": "float32"}, {"name": "LAYER_4/gamma", "shape": [32], "dtype": "float32"}, {"name": "LAYER_4/beta", "shape": [32], "dtype": "float32"}, {"name": "LAYER_4/moving_mean", "shape": [32], "dtype": "float32"}, {"name": "LAYER_4/moving_variance", "shape": [32], "dtype": "float32"}, {"name": "LAYER_40/gamma", "shape": [32], "dtype": "float32"}, {"name": "LAYER_40/beta", "shape": [32], "dtype": "float32"}, {"name": "LAYER_40/moving_mean", "shape": [32], "dtype": "float32"}, {"name": "LAYER_40/moving_variance", "shape": [32], "dtype": "float32"}, {"name": "LAYER_42/kernel", "shape": [1, 1, 32, 192], "dtype": "float32"}, {"name": "LAYER_43/gamma", "shape": [192], "dtype": "float32"}, {"name": "LAYER_43/beta", "shape": [192], "dtype": "float32"}, {"name": "LAYER_43/moving_mean", "shape": [192], "dtype": "float32"}, {"name": "LAYER_43/moving_variance", "shape": [192], "dtype": "float32"}, {"name": "LAYER_45/depthwise_kernel", "shape": [3, 3, 192, 1], "dtype": "float32"}, {"name": "LAYER_46/gamma", "shape": [192], "dtype": "float32"}, {"name": "LAYER_46/beta", "shape": [192], "dtype": "float32"}, {"name": "LAYER_46/moving_mean", "shape": [192], "dtype": "float32"}, {"name": "LAYER_46/moving_variance", "shape": [192], "dtype": "float32"}, {"name": "LAYER_48/kernel", "shape": [1, 1, 192, 32], "dtype": "float32"}, {"name": "LAYER_49/gamma", "shape": [32], "dtype": "float32"}, {"name": "LAYER_49/beta", "shape": [32], "dtype": "float32"}, {"name": "LAYER_49/moving_mean", "shape": [32], "dtype": "float32"}, {"name": "LAYER_49/moving_variance", "shape": [32], "dtype": "float32"}, {"name": "LAYER_51/kernel", "shape": [1, 1, 32, 192], "dtype": "float32"}, {"name": "LAYER_52/gamma", "shape": [192], "dtype": "float32"}, {"name": "LAYER_52/beta", "shape": [192], "dtype": "float32"}, {"name": "LAYER_52/moving_mean", "shape": [192], "dtype": "float32"}, {"name": "LAYER_52/moving_variance", "shape": [192], "dtype": "float32"}, {"name": "LAYER_54/depthwise_kernel", "shape": [3, 3, 192, 1], "dtype": "float32"}, {"name": "LAYER_55/gamma", "shape": [192], "dtype": "float32"}, {"name": "LAYER_55/beta", "shape": [192], "dtype": "float32"}, {"name": "LAYER_55/moving_mean", "shape": [192], "dtype": "float32"}, {"name": "LAYER_55/moving_variance", "shape": [192], "dtype": "float32"}, {"name": "LAYER_57/kernel", "shape": [1, 1, 192, 64], "dtype": "float32"}, {"name": "LAYER_58/gamma", "shape": [64], "dtype": "float32"}, {"name": "LAYER_58/beta", "shape": [64], "dtype": "float32"}, {"name": "LAYER_58/moving_mean", "shape": [64], "dtype": "float32"}, {"name": "LAYER_58/moving_variance", "shape": [64], "dtype": "float32"}, {"name": "LAYER_59/kernel", "shape": [1, 1, 64, 384], "dtype": "float32"}, {"name": "LAYER_6/kernel", "shape": [1, 1, 32, 16], "dtype": "float32"}, {"name": "LAYER_60/gamma", "shape": [384], "dtype": "float32"}, {"name": "LAYER_60/beta", "shape": [384], "dtype": "float32"}, {"name": "LAYER_60/moving_mean", "shape": [384], "dtype": "float32"}, {"name": "LAYER_60/moving_variance", "shape": [384], "dtype": "float32"}, {"name": "LAYER_62/depthwise_kernel", "shape": [3, 3, 384, 1], "dtype": "float32"}, {"name": "LAYER_63/gamma", "shape": [384], "dtype": "float32"}, {"name": "LAYER_63/beta", "shape": [384], "dtype": "float32"}, {"name": "LAYER_63/moving_mean", "shape": [384], "dtype": "float32"}, {"name": "LAYER_63/moving_variance", "shape": [384], "dtype": "float32"}, {"name": "LAYER_65/kernel", "shape": [1, 1, 384, 64], "dtype": "float32"}, {"name": "LAYER_66/gamma", "shape": [64], "dtype": "float32"}, {"name": "LAYER_66/beta", "shape": [64], "dtype": "float32"}, {"name": "LAYER_66/moving_mean", "shape": [64], "dtype": "float32"}, {"name": "LAYER_66/moving_variance", "shape": [64], "dtype": "float32"}, {"name": "LAYER_68/kernel", "shape": [1, 1, 64, 384], "dtype": "float32"}, {"name": "LAYER_69/gamma", "shape": [384], "dtype": "float32"}, {"name": "LAYER_69/beta", "shape": [384], "dtype": "float32"}, {"name": "LAYER_69/moving_mean", "shape": [384], "dtype": "float32"}, {"name": "LAYER_69/moving_variance", "shape": [384], "dtype": "float32"}, {"name": "LAYER_7/gamma", "shape": [16], "dtype": "float32"}, {"name": "LAYER_7/beta", "shape": [16], "dtype": "float32"}, {"name": "LAYER_7/moving_mean", "shape": [16], "dtype": "float32"}, {"name": "LAYER_7/moving_variance", "shape": [16], "dtype": "float32"}, {"name": "LAYER_71/depthwise_kernel", "shape": [3, 3, 384, 1], "dtype": "float32"}, {"name": "LAYER_72/gamma", "shape": [384], "dtype": "float32"}, {"name": "LAYER_72/beta", "shape": [384], "dtype": "float32"}, {"name": "LAYER_72/moving_mean", "shape": [384], "dtype": "float32"}, {"name": "LAYER_72/moving_variance", "shape": [384], "dtype": "float32"}, {"name": "LAYER_74/kernel", "shape": [1, 1, 384, 64], "dtype": "float32"}, {"name": "LAYER_75/gamma", "shape": [64], "dtype": "float32"}, {"name": "LAYER_75/beta", "shape": [64], "dtype": "float32"}, {"name": "LAYER_75/moving_mean", "shape": [64], "dtype": "float32"}, {"name": "LAYER_75/moving_variance", "shape": [64], "dtype": "float32"}, {"name": "LAYER_77/kernel", "shape": [1, 1, 64, 384], "dtype": "float32"}, {"name": "LAYER_78/gamma", "shape": [384], "dtype": "float32"}, {"name": "LAYER_78/beta", "shape": [384], "dtype": "float32"}, {"name": "LAYER_78/moving_mean", "shape": [384], "dtype": "float32"}, {"name": "LAYER_78/moving_variance", "shape": [384], "dtype": "float32"}, {"name": "LAYER_8/kernel", "shape": [1, 1, 16, 96], "dtype": "float32"}, {"name": "LAYER_80/depthwise_kernel", "shape": [3, 3, 384, 1], "dtype": "float32"}, {"name": "LAYER_81/gamma", "shape": [384], "dtype": "float32"}, {"name": "LAYER_81/beta", "shape": [384], "dtype": "float32"}, {"name": "LAYER_81/moving_mean", "shape": [384], "dtype": "float32"}, {"name": "LAYER_81/moving_variance", "shape": [384], "dtype": "float32"}, {"name": "LAYER_83/kernel", "shape": [1, 1, 384, 64], "dtype": "float32"}, {"name": "LAYER_84/gamma", "shape": [64], "dtype": "float32"}, {"name": "LAYER_84/beta", "shape": [64], "dtype": "float32"}, {"name": "LAYER_84/moving_mean", "shape": [64], "dtype": "float32"}, {"name": "LAYER_84/moving_variance", "shape": [64], "dtype": "float32"}, {"name": "LAYER_86/kernel", "shape": [1, 1, 64, 384], "dtype": "float32"}, {"name": "LAYER_87/gamma", "shape": [384], "dtype": "float32"}, {"name": "LAYER_87/beta", "shape": [384], "dtype": "float32"}, {"name": "LAYER_87/moving_mean", "shape": [384], "dtype": "float32"}, {"name": "LAYER_87/moving_variance", "shape": [384], "dtype": "float32"}, {"name": "LAYER_89/depthwise_kernel", "shape": [3, 3, 384, 1], "dtype": "float32"}, {"name": "LAYER_9/gamma", "shape": [96], "dtype": "float32"}, {"name": "LAYER_9/beta", "shape": [96], "dtype": "float32"}, {"name": "LAYER_9/moving_mean", "shape": [96], "dtype": "float32"}, {"name": "LAYER_9/moving_variance", "shape": [96], "dtype": "float32"}, {"name": "LAYER_90/gamma", "shape": [384], "dtype": "float32"}, {"name": "LAYER_90/beta", "shape": [384], "dtype": "float32"}, {"name": "LAYER_90/moving_mean", "shape": [384], "dtype": "float32"}, {"name": "LAYER_90/moving_variance", "shape": [384], "dtype": "float32"}, {"name": "LAYER_92/kernel", "shape": [1, 1, 384, 96], "dtype": "float32"}, {"name": "LAYER_93/gamma", "shape": [96], "dtype": "float32"}, {"name": "LAYER_93/beta", "shape": [96], "dtype": "float32"}, {"name": "LAYER_93/moving_mean", "shape": [96], "dtype": "float32"}, {"name": "LAYER_93/moving_variance", "shape": [96], "dtype": "float32"}, {"name": "LAYER_94/kernel", "shape": [1, 1, 96, 576], "dtype": "float32"}, {"name": "LAYER_95/gamma", "shape": [576], "dtype": "float32"}, {"name": "LAYER_95/beta", "shape": [576], "dtype": "float32"}, {"name": "LAYER_95/moving_mean", "shape": [576], "dtype": "float32"}, {"name": "LAYER_95/moving_variance", "shape": [576], "dtype": "float32"}, {"name": "LAYER_97/depthwise_kernel", "shape": [3, 3, 576, 1], "dtype": "float32"}, {"name": "LAYER_98/gamma", "shape": [576], "dtype": "float32"}, {"name": "LAYER_98/beta", "shape": [576], "dtype": "float32"}, {"name": "LAYER_98/moving_mean", "shape": [576], "dtype": "float32"}, {"name": "LAYER_98/moving_variance", "shape": [576], "dtype": "float32"}]}]}